stream_state_internal_quant.tflite (tflite, 77520 bytes, 18 tensors)

tfl.pseudo_qconst1 i1 [1, 9472] scale=0.00076420745 zero_point=0
0	0xdd	-0.02674726
1	0xca	-0.0412672
2	0xf1	-0.011463111
3	0xfa	-0.0045852447
4	0x0f	0.011463111
5	0xda	-0.029039882
6	0xc3	-0.046616655
7	0xe8	-0.018340979
8	0xe8	-0.018340979
9	0x07	0.005349452
10	0xe5	-0.0206336
11	0x1c	0.021397809
12	0x0b	0.0084062815
13	0xfc	-0.0030568298
14	0xb7	-0.055787142
15	0xe2	-0.022926223
16	0x20	0.024454638
17	0xda	-0.029039882
18	0xfd	-0.0022926223
19	0xef	-0.012991527
20	0xc8	-0.042795617
21	0xf6	-0.0076420745
22	0xf6	-0.0076420745
23	0xc8	-0.042795617
24	0xdc	-0.027511468
25	0xfb	-0.0038210372
26	0xe3	-0.022162016
27	0xc7	-0.043559823
28	0xf2	-0.010698904
29	0xd4	-0.033625126
30	0xf0	-0.012227319
31	0x15	0.016048357
32	0xf3	-0.009934697
33	0xdf	-0.025218846
34	0xc9	-0.04203141
35	0x10	0.012227319
36	0x22	0.025983054
37	0xb8	-0.055022936
38	0xf7	-0.006877867
39	0x10	0.012227319
40	0xeb	-0.016048357
41	0xf9	-0.005349452
42	0x2a	0.032096714
43	0xda	-0.029039882
44	0x1e	0.022926223
45	0xcb	-0.040502995
46	0xf1	-0.011463111
47	0xea	-0.016812563
48	0xc6	-0.044324033
49	0xd7	-0.031332504
50	0xe3	-0.022162016
51	0x07	0.005349452
52	0xef	-0.012991527
53	0xd8	-0.030568298
54	0xce	-0.038210373
55	0xec	-0.015284149
56	0xb9	-0.05425873
57	0xe4	-0.021397809
58	0xdf	-0.025218846
59	0xd4	-0.033625126
60	0xfb	-0.0038210372
61	0xba	-0.05349452
62	0xd4	-0.033625126
63	0xf7	-0.006877867
64	0xeb	-0.016048357
65	0xce	-0.038210373
66	0xc3	-0.046616655
67	0xc2	-0.04738086
68	0xf5	-0.0084062815
69	0x14	0.015284149
70	0xc7	-0.043559823
71	0xfe	-0.0015284149
72	0xf5	-0.0084062815
73	0x13	0.014519941
74	0xcf	-0.037446164
75	0x19	0.019105187
76	0x1c	0.021397809
77	0x05	0.0038210372
78	0xb3	-0.058843974
79	0xea	-0.016812563
80	0xea	-0.016812563
81	0xf8	-0.0061136596
82	0xe1	-0.02369043
83	0xfc	-0.0030568298
84	0xf5	-0.0084062815
85	0xfc	-0.0030568298
86	0xd6	-0.032096714
87	0xd1	-0.03591775
88	0xbb	-0.052730314
89	0xe1	-0.02369043
90	0xc8	-0.042795617
91	0xe5	-0.0206336
92	0xc7	-0.043559823
93	0xea	-0.016812563
94	0x1e	0.022926223
95	0x08	0.0061136596
96	0xe1	-0.02369043
97	0xd3	-0.034389336
98	0xf6	-0.0076420745
99	0xfc	-0.0030568298
100	0x0d	0.009934697
101	0xfb	-0.0038210372
102	0x01	0.00076420745
103	0xf7	-0.006877867
104	0xfb	-0.0038210372
105	0xfa	-0.0045852447
106	0x03	0.0022926223
107	0xdf	-0.025218846
108	0x27	0.02980409
109	0xf8	-0.0061136596
110	0xe9	-0.01757677
111	0xca	-0.0412672
112	0xc7	-0.043559823
113	0xee	-0.013755734
114	0xe7	-0.019105187
115	0x0e	0.010698904
116	0xcc	-0.03973879
117	0xd1	-0.03591775
118	0xd5	-0.03286092
119	0xf8	-0.0061136596
120	0xe6	-0.019869395
121	0xfc	-0.0030568298
122	0xdf	-0.025218846
123	0xc1	-0.04814507
124	0xe5	-0.0206336
125	0xcb	-0.040502995
126	0x0c	0.009170489
127	0xfa	-0.0045852447
128	0xfd	-0.0022926223
129	0x01	0.00076420745
130	0xe1	-0.02369043
131	0xeb	-0.016048357
132	0x0e	0.010698904
133	0x0b	0.0084062815
134	0xcb	-0.040502995
135	0xdb	-0.028275676
136	0x22	0.025983054
137	0x01	0.00076420745
138	0xd3	-0.034389336
139	0x0b	0.0084062815
140	0xef	-0.012991527
141	0x04	0.0030568298
142	0xd0	-0.036681958
143	0xf6	-0.0076420745
144	0xf1	-0.011463111
145	0xfd	-0.0022926223
146	0xd9	-0.02980409
147	0x0f	0.011463111
148	0xf2	-0.010698904
149	0x13	0.014519941
150	0x0f	0.011463111
151	0xcc	-0.03973879
152	0x04	0.0030568298
153	0x18	0.018340979
154	0xcd	-0.03897458
155	0x0b	0.0084062815
156	0xeb	-0.016048357
157	0x0f	0.011463111
158	0x07	0.005349452
159	0x18	0.018340979
160	0xd3	-0.034389336
161	0xc5	-0.04508824
162	0xf4	-0.009170489
163	0xe4	-0.021397809
164	0xf5	-0.0084062815
165	0xe5	-0.0206336
166	0xd8	-0.030568298
167	0xfc	-0.0030568298
168	0xf5	-0.0084062815
169	0xdc	-0.027511468
170	0x12	0.013755734
171	0xd2	-0.03515354
172	0x00	0.0
173	0xfe	-0.0015284149
174	0xf7	-0.006877867
175	0xc5	-0.04508824
176	0xe9	-0.01757677
177	0x0f	0.011463111
178	0x0f	0.011463111
179	0x18	0.018340979
180	0xe1	-0.02369043
181	0xd1	-0.03591775
182	0xe2	-0.022926223
183	0x0e	0.010698904
184	0xd2	-0.03515354
185	0xf5	-0.0084062815
186	0xd6	-0.032096714
187	0xb3	-0.058843974
188	0xd5	-0.03286092
189	0xf4	-0.009170489
190	0xc9	-0.04203141
191	0xf1	-0.011463111
192	0xdc	-0.027511468
193	0xf3	-0.009934697
194	0xfe	-0.0015284149
195	0xe1	-0.02369043
196	0xe8	-0.018340979
197	0xe9	-0.01757677
198	0xb8	-0.055022936
199	0x06	0.0045852447
200	0x06	0.0045852447
201	0x08	0.0061136596
202	0xdd	-0.02674726
203	0x10	0.012227319
204	0xe8	-0.018340979
205	0x19	0.019105187
206	0xf7	-0.006877867
207	0xfc	-0.0030568298
208	0x00	0.0
209	0xe6	-0.019869395
210	0xfa	-0.0045852447
211	0x0d	0.009934697
212	0xb4	-0.058079764
213	0x0e	0.010698904
214	0x11	0.012991527
215	0xe4	-0.021397809
216	0xdf	-0.025218846
217	0x01	0.00076420745
218	0xf4	-0.009170489
219	0xfe	-0.0015284149
220	0xde	-0.025983054
221	0x13	0.014519941
222	0xda	-0.029039882
223	0xf0	-0.012227319
224	0xd8	-0.030568298
225	0xc7	-0.043559823
226	0xfb	-0.0038210372
227	0xdd	-0.02674726
228	0xfc	-0.0030568298
229	0x07	0.005349452
230	0xcb	-0.040502995
231	0x17	0.01757677
232	0xec	-0.015284149
233	0x16	0.016812563
234	0x22	0.025983054
235	0xcc	-0.03973879
236	0xf0	-0.012227319
237	0xdb	-0.028275676
238	0xcd	-0.03897458
239	0xec	-0.015284149
240	0xd7	-0.031332504
241	0x13	0.014519941
242	0xe4	-0.021397809
243	0x02	0.0015284149
244	0x02	0.0015284149
245	0xfa	-0.0045852447
246	0xf0	-0.012227319
247	0xf3	-0.009934697
248	0xfe	-0.0015284149
249	0xfe	-0.0015284149
250	0x02	0.0015284149
251	0xd7	-0.031332504
252	0xdb	-0.028275676
253	0xf0	-0.012227319
254	0x07	0.005349452
255	0xfc	-0.0030568298

tfl.pseudo_qconst3 i1 [64, 1, 1, 64]
0	0x0a	10
1	0xe0	-32
2	0xc2	-62
3	0x0c	12
4	0xfd	-3
5	0xbd	-67
6	0x40	64
7	0x3a	58
8	0x9e	-98
9	0xfe	-2
10	0xdc	-36
11	0x00	0
12	0x11	17
13	0x1a	26
14	0x20	32
15	0x3a	58
16	0x10	16
17	0x92	-110
18	0x1f	31
19	0x08	8
20	0x4d	77
21	0x30	48
22	0xf2	-14
23	0xed	-19
24	0x34	52
25	0x31	49
26	0x50	80
27	0x11	17
28	0xee	-18
29	0x55	85
30	0x21	33
31	0xde	-34
32	0xe5	-27
33	0x05	5
34	0x81	-127
35	0x36	54
36	0x29	41
37	0x15	21
38	0xbd	-67
39	0x42	66
40	0x4e	78
41	0xf3	-13
42	0x03	3
43	0xc4	-60
44	0xbd	-67
45	0x54	84
46	0xdc	-36
47	0xb9	-71
48	0xdd	-35
49	0x06	6
50	0x49	73
51	0x39	57
52	0x3e	62
53	0xc2	-62
54	0x0a	10
55	0x59	89
56	0x11	17
57	0xaf	-81
58	0xbe	-66
59	0xdd	-35
60	0x42	66
61	0x1c	28
62	0xd5	-43
63	0xb3	-77
64	0xa2	-94
65	0xb2	-78
66	0x63	99
67	0x1a	26
68	0xe7	-25
69	0xd7	-41
70	0xdf	-33
71	0x4f	79
72	0x2c	44
73	0x06	6
74	0xe7	-25
75	0x6c	108
76	0x2a	42
77	0x8c	-116
78	0xab	-85
79	0x29	41
80	0x7f	127
81	0x47	71
82	0xaf	-81
83	0x28	40
84	0x3b	59
85	0x99	-103
86	0x0d	13
87	0x23	35
88	0xf3	-13
89	0x79	121
90	0xa2	-94
91	0x76	118
92	0x2b	43
93	0xbe	-66
94	0x00	0
95	0x2c	44
96	0x5b	91
97	0x09	9
98	0xcc	-52
99	0xf1	-15
100	0xe6	-26
101	0xdb	-37
102	0x94	-108
103	0x28	40
104	0xa6	-90
105	0x6c	108
106	0x2d	45
107	0xc3	-61
108	0xdc	-36
109	0x55	85
110	0xc8	-56
111	0xe4	-28
112	0x5f	95
113	0xae	-82
114	0xf5	-11
115	0x21	33
116	0x74	116
117	0xd0	-48
118	0x10	16
119	0xe8	-24
120	0x26	38
121	0x21	33
122	0x4d	77
123	0xbd	-67
124	0x9d	-99
125	0x3c	60
126	0x18	24
127	0xf0	-16
128	0xe7	-25
129	0xe5	-27
130	0x13	19
131	0xff	-1
132	0xa6	-90
133	0x0b	11
134	0x54	84
135	0x36	54
136	0x20	32
137	0x05	5
138	0x06	6
139	0x26	38
140	0xd9	-39
141	0x46	70
142	0x6c	108
143	0xcb	-53
144	0x6d	109
145	0x6b	107
146	0xf9	-7
147	0x0f	15
148	0x4b	75
149	0xe0	-32
150	0x31	49
151	0x25	37
152	0xf2	-14
153	0x01	1
154	0xb3	-77
155	0xb3	-77
156	0x45	69
157	0x3c	60
158	0x5a	90
159	0xce	-50
160	0x2c	44
161	0x51	81
162	0xd9	-39
163	0xe2	-30
164	0x99	-103
165	0x58	88
166	0x2d	45
167	0xab	-85
168	0xe1	-31
169	0xb4	-76
170	0x07	7
171	0xc5	-59
172	0x81	-127
173	0x71	113
174	0xa1	-95
175	0x49	73
176	0x1c	28
177	0xc1	-63
178	0xa8	-88
179	0x28	40
180	0xc9	-55
181	0x3d	61
182	0xee	-18
183	0x9b	-101
184	0x23	35
185	0xda	-38
186	0xfa	-6
187	0x1d	29
188	0xa5	-91
189	0xd4	-44
190	0x61	97
191	0xde	-34
192	0x12	18
193	0xd1	-47
194	0x24	36
195	0x74	116
196	0xf7	-9
197	0x71	113
198	0xec	-20
199	0x44	68
200	0x8f	-113
201	0xfb	-5
202	0x41	65
203	0xa4	-92
204	0x2f	47
205	0x56	86
206	0x29	41
207	0xac	-84
208	0xc4	-60
209	0xf8	-8
210	0x89	-119
211	0x9f	-97
212	0xe2	-30
213	0x28	40
214	0x03	3
215	0x4b	75
216	0x36	54
217	0x43	67
218	0xde	-34
219	0xbe	-66
220	0x22	34
221	0x3e	62
222	0xa0	-96
223	0xde	-34
224	0xfc	-4
225	0xe7	-25
226	0xdb	-37
227	0x81	-127
228	0x20	32
229	0x6c	108
230	0xbf	-65
231	0x23	35
232	0xf5	-11
233	0x18	24
234	0x71	113
235	0xb3	-77
236	0xe7	-25
237	0x44	68
238	0x0b	11
239	0x98	-104
240	0xe2	-30
241	0xfc	-4
242	0xa4	-92
243	0x3e	62
244	0x51	81
245	0xbf	-65
246	0x2c	44
247	0xfc	-4
248	0x7a	122
249	0x2f	47
250	0xc5	-59
251	0xf9	-7
252	0x46	70
253	0x37	55
254	0x4a	74
255	0x2b	43

tfl.pseudo_qconst5 i1 [1, 23, 1, 64]
0	0x0b	11
1	0xe0	-32
2	0xed	-19
3	0x2c	44
4	0x63	99
5	0x16	22
6	0x9d	-99
7	0x12	18
8	0xd3	-45
9	0x81	-127
10	0xdd	-35
11	0x2b	43
12	0xd3	-45
13	0x59	89
14	0x25	37
15	0x77	119
16	0xe5	-27
17	0x9b	-101
18	0x96	-106
19	0xf1	-15
20	0x2e	46
21	0x4a	74
22	0x4b	75
23	0x02	2
24	0xc0	-64
25	0x3d	61
26	0x27	39
27	0xef	-17
28	0x3b	59
29	0x14	20
30	0xf8	-8
31	0xfb	-5
32	0x40	64
33	0xfc	-4
34	0x81	-127
35	0xe5	-27
36	0x2c	44
37	0x21	33
38	0xe0	-32
39	0xeb	-21
40	0x6e	110
41	0xf4	-12
42	0xf3	-13
43	0x22	34
44	0x74	116
45	0xe9	-23
46	0x26	38
47	0x35	53
48	0xe5	-27
49	0x17	23
50	0x7f	127
51	0xd7	-41
52	0xa9	-87
53	0x21	33
54	0x81	-127
55	0x22	34
56	0xe8	-24
57	0x9a	-102
58	0x3b	59
59	0x0f	15
60	0x9f	-97
61	0xfd	-3
62	0x2b	43
63	0x1d	29
64	0xf8	-8
65	0xec	-20
66	0xf1	-15
67	0x3b	59
68	0x5b	91
69	0xdc	-36
70	0xbf	-65
71	0x2b	43
72	0x81	-127
73	0xbc	-68
74	0x35	53
75	0x11	17
76	0x36	54
77	0xb2	-78
78	0x53	83
79	0x7b	123
80	0x81	-127
81	0xdd	-35
82	0x24	36
83	0xd0	-48
84	0xf5	-11
85	0x7f	127
86	0x50	80
87	0xa5	-91
88	0xdf	-33
89	0x6c	108
90	0x70	112
91	0x1a	26
92	0x06	6
93	0x19	25
94	0x7f	127
95	0xdc	-36
96	0xb9	-71
97	0xae	-82
98	0xdd	-35
99	0x7e	126
100	0x5b	91
101	0x71	113
102	0x1b	27
103	0x10	16
104	0x1f	31
105	0xe6	-26
106	0xf8	-8
107	0x6b	107
108	0x3f	63
109	0x9c	-100
110	0xdb	-37
111	0xfb	-5
112	0x92	-110
113	0xf5	-11
114	0x13	19
115	0xf9	-7
116	0xbe	-66
117	0x3a	58
118	0x53	83
119	0xac	-84
120	0x01	1
121	0xd8	-40
122	0xe8	-24
123	0x02	2
124	0xba	-70
125	0x2b	43
126	0x3f	63
127	0x96	-106
128	0xf4	-12
129	0xd6	-42
130	0x92	-110
131	0xd1	-47
132	0xff	-1
133	0x4f	79
134	0xb4	-76
135	0xf4	-12
136	0xed	-19
137	0x42	66
138	0x7f	127
139	0xa7	-89
140	0xc6	-58
141	0xf3	-13
142	0x25	37
143	0x61	97
144	0xe1	-31
145	0x8e	-114
146	0x82	-126
147	0xdb	-37
148	0x37	55
149	0x25	37
150	0x18	24
151	0x86	-122
152	0x5c	92
153	0x64	100
154	0x5b	91
155	0x8c	-116
156	0xf6	-10
157	0x22	34
158	0x13	19
159	0x0f	15
160	0x74	116
161	0xad	-83
162	0xa0	-96
163	0x1d	29
164	0xe8	-24
165	0x69	105
166	0x45	69
167	0xb7	-73
168	0x7b	123
169	0x30	48
170	0x03	3
171	0x6d	109
172	0x5b	91
173	0xe7	-25
174	0xd3	-45
175	0x35	53
176	0x81	-127
177	0x2b	43
178	0x38	56
179	0x81	-127
180	0xa1	-95
181	0x81	-127
182	0x12	18
183	0xdd	-35
184	0xb1	-79
185	0xcb	-53
186	0x7f	127
187	0x47	71
188	0x8f	-113
189	0xeb	-21
190	0x94	-108
191	0x12	18
192	0xd5	-43
193	0xaa	-86
194	0xb4	-76
195	0xa8	-88
196	0xd5	-43
197	0x01	1
198	0xc7	-57
199	0xfa	-6
200	0xe4	-28
201	0x4d	77
202	0x0d	13
203	0x96	-106
204	0xe4	-28
205	0x7f	127
206	0x69	105
207	0x42	66
208	0x43	67
209	0xda	-38
210	0xde	-34
211	0xf2	-14
212	0x6c	108
213	0x6e	110
214	0x32	50
215	0x9e	-98
216	0xe7	-25
217	0x66	102
218	0x66	102
219	0xa0	-96
220	0x03	3
221	0xc1	-63
222	0xfb	-5
223	0x23	35
224	0xe3	-29
225	0x07	7
226	0xb5	-75
227	0x7f	127
228	0xda	-38
229	0x08	8
230	0xaa	-86
231	0x06	6
232	0x55	85
233	0x16	22
234	0x53	83
235	0x3d	61
236	0x1f	31
237	0x03	3
238	0xc6	-58
239	0xfe	-2
240	0xee	-18
241	0xcb	-53
242	0x40	64
243	0xe1	-31
244	0xf3	-13
245	0x9c	-100
246	0x06	6
247	0xb6	-74
248	0xd5	-43
249	0xe9	-23
250	0x64	100
251	0x2a	42
252	0xd8	-40
253	0xdb	-37
254	0x47	71
255	0x9c	-100

tfl.pseudo_qconst7 i1 [64, 1, 1, 64]
0	0x2c	44
1	0x3a	58
2	0x50	80
3	0xfb	-5
4	0x1a	26
5	0x65	101
6	0x11	17
7	0x9c	-100
8	0xaf	-81
9	0xe2	-30
10	0x4a	74
11	0xdf	-33
12	0x81	-127
13	0xb6	-74
14	0x8f	-113
15	0x0c	12
16	0xe3	-29
17	0x40	64
18	0x0c	12
19	0xbb	-69
20	0xe1	-31
21	0xf6	-10
22	0xf1	-15
23	0xa8	-88
24	0x1a	26
25	0x00	0
26	0x6b	107
27	0xd5	-43
28	0xbf	-65
29	0x2e	46
30	0xad	-83
31	0x1e	30
32	0x55	85
33	0xa3	-93
34	0x3f	63
35	0x23	35
36	0xc3	-61
37	0xf0	-16
38	0x23	35
39	0x24	36
40	0xe7	-25
41	0xd9	-39
42	0x1a	26
43	0x3a	58
44	0x4d	77
45	0x0c	12
46	0x20	32
47	0xce	-50
48	0xcf	-49
49	0xfc	-4
50	0xe1	-31
51	0x2c	44
52	0x06	6
53	0xec	-20
54	0xe8	-24
55	0xed	-19
56	0x2c	44
57	0xa3	-93
58	0xab	-85
59	0xe5	-27
60	0xfa	-6
61	0x1d	29
62	0x9d	-99
63	0x1b	27
64	0x18	24
65	0xb8	-72
66	0xfd	-3
67	0x22	34
68	0xdd	-35
69	0x0e	14
70	0x69	105
71	0x46	70
72	0x6f	111
73	0x3d	61
74	0xed	-19
75	0xfa	-6
76	0xa5	-91
77	0x10	16
78	0x91	-111
79	0xc7	-57
80	0x11	17
81	0x38	56
82	0x11	17
83	0xba	-70
84	0xd4	-44
85	0x6f	111
86	0xa2	-94
87	0x70	112
88	0x35	53
89	0xa6	-90
90	0x58	88
91	0xee	-18
92	0xae	-82
93	0x9b	-101
94	0x4b	75
95	0xff	-1
96	0x28	40
97	0xa5	-91
98	0xd7	-41
99	0xc1	-63
100	0x5b	91
101	0x2d	45
102	0xcd	-51
103	0xb6	-74
104	0xf4	-12
105	0x42	66
106	0x82	-126
107	0x5c	92
108	0x1f	31
109	0x83	-125
110	0xf4	-12
111	0x4d	77
112	0xba	-70
113	0xd6	-42
114	0x18	24
115	0x65	101
116	0xd2	-46
117	0xc7	-57
118	0x58	88
119	0x61	97
120	0x7f	127
121	0xba	-70
122	0x31	49
123	0x0a	10
124	0xb6	-74
125	0xed	-19
126	0x05	5
127	0xb3	-77
128	0xfa	-6
129	0xb6	-74
130	0xe5	-27
131	0xcc	-52
132	0x23	35
133	0x1c	28
134	0xe2	-30
135	0x81	-127
136	0xb4	-76
137	0xa7	-89
138	0xea	-22
139	0xa3	-93
140	0x4d	77
141	0x9d	-99
142	0xf0	-16
143	0x36	54
144	0x0b	11
145	0xc8	-56
146	0x7e	126
147	0x4c	76
148	0x79	121
149	0xbe	-66
150	0x20	32
151	0x94	-108
152	0x9b	-101
153	0xb4	-76
154	0x5a	90
155	0x40	64
156	0xd9	-39
157	0x53	83
158	0xb6	-74
159	0x15	21
160	0x9a	-102
161	0x67	103
162	0x9a	-102
163	0x17	23
164	0xf6	-10
165	0x25	37
166	0xe2	-30
167	0x7e	126
168	0x35	53
169	0xa7	-89
170	0xdf	-33
171	0xf8	-8
172	0xa9	-87
173	0xa6	-90
174	0xc3	-61
175	0x4b	75
176	0xa2	-94
177	0xb9	-71
178	0x12	18
179	0x28	40
180	0xf0	-16
181	0x37	55
182	0xcc	-52
183	0xd3	-45
184	0xcd	-51
185	0xcf	-49
186	0xd0	-48
187	0xaa	-86
188	0x15	21
189	0xc1	-63
190	0x15	21
191	0x64	100
192	0x16	22
193	0xcc	-52
194	0xfd	-3
195	0xcc	-52
196	0x8f	-113
197	0xe2	-30
198	0x2b	43
199	0x40	64
200	0x33	51
201	0xd5	-43
202	0x4e	78
203	0xd4	-44
204	0xfd	-3
205	0x01	1
206	0xe7	-25
207	0xaf	-81
208	0xf7	-9
209	0xc4	-60
210	0x60	96
211	0xf8	-8
212	0xae	-82
213	0xb6	-74
214	0x4c	76
215	0x52	82
216	0xc3	-61
217	0x01	1
218	0x05	5
219	0xce	-50
220	0x9a	-102
221	0xae	-82
222	0xfa	-6
223	0x1c	28
224	0xcb	-53
225	0x16	22
226	0xcb	-53
227	0xe9	-23
228	0xfa	-6
229	0xa2	-94
230	0xa1	-95
231	0x2e	46
232	0x1c	28
233	0xf5	-11
234	0xb8	-72
235	0x75	117
236	0xd4	-44
237	0xe2	-30
238	0xdd	-35
239	0xaa	-86
240	0x44	68
241	0x56	86
242	0xed	-19
243	0x09	9
244	0x3c	60
245	0xb5	-75
246	0xfa	-6
247	0x11	17
248	0x7f	127
249	0xea	-22
250	0xe3	-29
251	0x35	53
252	0x17	23
253	0xc9	-55
254	0x9f	-97
255	0xb3	-77

tfl.pseudo_qconst9 i1 [1, 15, 1, 32]
0	0x2d	45
1	0xba	-70
2	0x7f	127
3	0x61	97
4	0x7f	127
5	0x42	66
6	0x4a	74
7	0xe9	-23
8	0xea	-22
9	0x22	34
10	0x81	-127
11	0xbf	-65
12	0x6f	111
13	0x0f	15
14	0xbe	-66
15	0x2d	45
16	0xe1	-31
17	0x9a	-102
18	0x81	-127
19	0xd3	-45
20	0xb3	-77
21	0x7f	127
22	0x70	112
23	0xd7	-41
24	0x00	0
25	0xc0	-64
26	0xa9	-87
27	0x71	113
28	0x66	102
29	0xac	-84
30	0xf7	-9
31	0xb1	-79
32	0xfc	-4
33	0x31	49
34	0x11	17
35	0x19	25
36	0x44	68
37	0x2c	44
38	0x1a	26
39	0xd5	-43
40	0x62	98
41	0xfe	-2
42	0x95	-107
43	0xe5	-27
44	0x77	119
45	0xff	-1
46	0xa0	-96
47	0xdf	-33
48	0x49	73
49	0x38	56
50	0xed	-19
51	0x3f	63
52	0x9c	-100
53	0x7d	125
54	0x7f	127
55	0xef	-17
56	0x3d	61
57	0x82	-126
58	0xb6	-74
59	0x55	85
60	0x07	7
61	0x17	23
62	0xb7	-73
63	0xf8	-8
64	0x0f	15
65	0xbf	-65
66	0x47	71
67	0xd7	-41
68	0x0e	14
69	0x2f	47
70	0x15	21
71	0x0a	10
72	0x95	-107
73	0x3f	63
74	0x24	36
75	0xbd	-67
76	0xd3	-45
77	0x2f	47
78	0x08	8
79	0xfc	-4
80	0x16	22
81	0x39	57
82	0xe0	-32
83	0x21	33
84	0xb5	-75
85	0x05	5
86	0x2c	44
87	0x2d	45
88	0xf2	-14
89	0x31	49
90	0x81	-127
91	0xcb	-53
92	0x7f	127
93	0x21	33
94	0x5f	95
95	0x81	-127
96	0x43	67
97	0x58	88
98	0x20	32
99	0xbf	-65
100	0x25	37
101	0xa7	-89
102	0xb8	-72
103	0x6d	109
104	0xe1	-31
105	0x3a	58
106	0xc3	-61
107	0xb3	-77
108	0x11	17
109	0x36	54
110	0x2b	43
111	0x9b	-101
112	0x22	34
113	0x13	19
114	0x05	5
115	0xf9	-7
116	0xe9	-23
117	0x7f	127
118	0x9e	-98
119	0xf0	-16
120	0x02	2
121	0xa6	-90
122	0xd4	-44
123	0xff	-1
124	0x74	116
125	0x04	4
126	0x72	114
127	0xc0	-64
128	0xfc	-4
129	0x17	23
130	0xc8	-56
131	0x6d	109
132	0xec	-20
133	0xbd	-67
134	0xc9	-55
135	0x50	80
136	0x39	57
137	0x08	8
138	0x9d	-99
139	0xc0	-64
140	0x08	8
141	0x1d	29
142	0x15	21
143	0xb6	-74
144	0xb5	-75
145	0xc7	-57
146	0x53	83
147	0x81	-127
148	0xf5	-11
149	0x5a	90
150	0x02	2
151	0x48	72
152	0xd2	-46
153	0xb5	-75
154	0xa0	-96
155	0x81	-127
156	0x4e	78
157	0x64	100
158	0x7f	127
159	0xa3	-93
160	0x51	81
161	0xdf	-33
162	0x10	16
163	0xfe	-2
164	0xbb	-69
165	0x41	65
166	0x20	32
167	0x7f	127
168	0x19	25
169	0x60	96
170	0xea	-22
171	0x81	-127
172	0x14	20
173	0x0c	12
174	0x31	49
175	0x96	-106
176	0x4c	76
177	0x75	117
178	0x57	87
179	0x99	-103
180	0xda	-38
181	0xe9	-23
182	0x01	1
183	0xe6	-26
184	0x3b	59
185	0xaa	-86
186	0x39	57
187	0xdb	-37
188	0x57	87
189	0xbe	-66
190	0xe8	-24
191	0x2f	47
192	0x14	20
193	0x2d	45
194	0xc9	-55
195	0x7f	127
196	0x99	-103
197	0x7b	123
198	0x15	21
199	0xf8	-8
200	0x8d	-115
201	0xc1	-63
202	0xb7	-73
203	0xbe	-66
204	0xcc	-52
205	0x01	1
206	0xd2	-46
207	0xf8	-8
208	0x3e	62
209	0xa3	-93
210	0x27	39
211	0xc5	-59
212	0xcc	-52
213	0x0a	10
214	0x93	-109
215	0x01	1
216	0x22	34
217	0xe5	-27
218	0x09	9
219	0x4c	76
220	0x0a	10
221	0xe2	-30
222	0x56	86
223	0xe9	-23
224	0xe9	-23
225	0x2c	44
226	0xe7	-25
227	0x04	4
228	0x3a	58
229	0xce	-50
230	0x07	7
231	0xd5	-43
232	0x08	8
233	0xc9	-55
234	0xef	-17
235	0xf7	-9
236	0xb8	-72
237	0x7f	127
238	0x1e	30
239	0x15	21
240	0x0f	15
241	0x95	-107
242	0x4c	76
243	0xe2	-30
244	0x7f	127
245	0xc7	-57
246	0xc9	-55
247	0xd7	-41
248	0xa1	-95
249	0x94	-108
250	0x4a	74
251	0x0a	10
252	0x5c	92
253	0x7f	127
254	0x38	56
255	0xb9	-71

tfl.pseudo_qconst11 i1 [1, 9, 1, 32]
0	0x1b	27
1	0x38	56
2	0xf6	-10
3	0x68	104
4	0x81	-127
5	0xc4	-60
6	0x47	71
7	0xaf	-81
8	0xce	-50
9	0xe8	-24
10	0x93	-109
11	0x11	17
12	0x01	1
13	0x19	25
14	0x41	65
15	0x37	55
16	0x8f	-113
17	0xb1	-79
18	0x31	49
19	0xfb	-5
20	0xb4	-76
21	0x9a	-102
22	0x81	-127
23	0x45	69
24	0x33	51
25	0x98	-104
26	0x23	35
27	0x2f	47
28	0x48	72
29	0xd2	-46
30	0x11	17
31	0xdd	-35
32	0x6a	106
33	0x65	101
34	0x81	-127
35	0xb3	-77
36	0xd9	-39
37	0x81	-127
38	0x86	-122
39	0x03	3
40	0xfd	-3
41	0x19	25
42	0x45	69
43	0x10	16
44	0x7d	125
45	0xe0	-32
46	0x51	81
47	0x85	-123
48	0xe0	-32
49	0x70	112
50	0x07	7
51	0x55	85
52	0x81	-127
53	0xc9	-55
54	0xa9	-87
55	0xd7	-41
56	0x5f	95
57	0xc4	-60
58	0xb4	-76
59	0x59	89
60	0x4a	74
61	0x6a	106
62	0x3d	61
63	0x2c	44
64	0x51	81
65	0x7a	122
66	0xe5	-27
67	0x31	49
68	0x2e	46
69	0xbe	-66
70	0xec	-20
71	0x36	54
72	0xcf	-49
73	0x39	57
74	0xce	-50
75	0xa7	-89
76	0x7f	127
77	0xdc	-36
78	0x6c	108
79	0x7d	125
80	0xac	-84
81	0xff	-1
82	0x24	36
83	0x7f	127
84	0x50	80
85	0x9e	-98
86	0x7d	125
87	0x8a	-118
88	0x86	-122
89	0xbd	-67
90	0xdc	-36
91	0xc6	-58
92	0x6f	111
93	0x7f	127
94	0xef	-17
95	0x5c	92
96	0x51	81
97	0x16	22
98	0x1c	28
99	0xfe	-2
100	0x9e	-98
101	0x59	89
102	0x81	-127
103	0xed	-19
104	0x3d	61
105	0xff	-1
106	0x6a	106
107	0x81	-127
108	0xa3	-93
109	0xb6	-74
110	0x18	24
111	0x5f	95
112	0x7f	127
113	0x97	-105
114	0x54	84
115	0xc3	-61
116	0x37	55
117	0x0f	15
118	0x94	-108
119	0x46	70
120	0x81	-127
121	0xfb	-5
122	0x9a	-102
123	0xb5	-75
124	0x22	34
125	0x6f	111
126	0x6e	110
127	0x82	-126
128	0xab	-85
129	0xcf	-49
130	0x2c	44
131	0xad	-83
132	0x99	-103
133	0x6e	110
134	0x8c	-116
135	0xc7	-57
136	0xe2	-30
137	0x74	116
138	0x8f	-113
139	0x3f	63
140	0x74	116
141	0xbd	-67
142	0x7f	127
143	0x07	7
144	0xbb	-69
145	0x81	-127
146	0xcd	-51
147	0x40	64
148	0x75	117
149	0xfb	-5
150	0x44	68
151	0xb9	-71
152	0x06	6
153	0x81	-127
154	0x46	70
155	0xbc	-68
156	0xb5	-75
157	0x6a	106
158	0x49	73
159	0xed	-19
160	0xd2	-46
161	0x6a	106
162	0x95	-107
163	0x1d	29
164	0xbb	-69
165	0xbd	-67
166	0x84	-124
167	0x7f	127
168	0xba	-70
169	0x48	72
170	0xf9	-7
171	0xa6	-90
172	0x7b	123
173	0x70	112
174	0x55	85
175	0x5b	91
176	0xe3	-29
177	0xa0	-96
178	0x23	35
179	0x36	54
180	0x33	51
181	0x94	-108
182	0xac	-84
183	0x81	-127
184	0xd9	-39
185	0xb7	-73
186	0xa5	-91
187	0xf6	-10
188	0x23	35
189	0x29	41
190	0x2c	44
191	0x49	73
192	0x4c	76
193	0x7f	127
194	0xff	-1
195	0x4b	75
196	0x9f	-97
197	0x0e	14
198	0xce	-50
199	0xe2	-30
200	0x81	-127
201	0xd0	-48
202	0xb9	-71
203	0x41	65
204	0x0a	10
205	0x7f	127
206	0x03	3
207	0x91	-111
208	0xf1	-15
209	0xa0	-96
210	0xb9	-71
211	0x2d	45
212	0x15	21
213	0x0d	13
214	0x66	102
215	0x6e	110
216	0x9e	-98
217	0x46	70
218	0xcb	-53
219	0x7f	127
220	0x9c	-100
221	0x0b	11
222	0x81	-127
223	0x81	-127
224	0x81	-127
225	0xc6	-58
226	0x9e	-98
227	0x7f	127
228	0x55	85
229	0x3d	61
230	0xd4	-44
231	0x55	85
232	0x2a	42
233	0x7f	127
234	0x7f	127
235	0x4d	77
236	0xb0	-80
237	0x73	115
238	0xdf	-33
239	0x81	-127
240	0x51	81
241	0xa3	-93
242	0x12	18
243	0x63	99
244	0x3a	58
245	0x81	-127
246	0x97	-105
247	0x5c	92
248	0x15	21
249	0xc3	-61
250	0x7f	127
251	0x56	86
252	0x7f	127
253	0xee	-18
254	0xcf	-49
255	0xda	-38

tfl.pseudo_qconst13 i1 [64, 1, 1, 64]
0	0x4f	79
1	0x33	51
2	0x26	38
3	0x54	84
4	0xbe	-66
5	0xd4	-44
6	0x0b	11
7	0x27	39
8	0xd6	-42
9	0x42	66
10	0x81	-127
11	0x18	24
12	0x07	7
13	0x44	68
14	0x48	72
15	0x1f	31
16	0x31	49
17	0x36	54
18	0x3d	61
19	0xfa	-6
20	0x0b	11
21	0xc2	-62
22	0xef	-17
23	0x0f	15
24	0xe1	-31
25	0x2a	42
26	0x3a	58
27	0x50	80
28	0x12	18
29	0xe6	-26
30	0xf3	-13
31	0x15	21
32	0x3d	61
33	0xff	-1
34	0x00	0
35	0xe8	-24
36	0x40	64
37	0xd3	-45
38	0xa6	-90
39	0xbb	-69
40	0xed	-19
41	0xfd	-3
42	0x41	65
43	0xb6	-74
44	0xc4	-60
45	0x13	19
46	0xd8	-40
47	0x65	101
48	0x0d	13
49	0xfc	-4
50	0xf6	-10
51	0x4f	79
52	0xe3	-29
53	0xbe	-66
54	0x0b	11
55	0xe0	-32
56	0x4c	76
57	0x08	8
58	0x1e	30
59	0xc9	-55
60	0xcf	-49
61	0xaf	-81
62	0x3e	62
63	0xe4	-28
64	0xaa	-86
65	0xb2	-78
66	0xbc	-68
67	0x08	8
68	0x5d	93
69	0x50	80
70	0x0e	14
71	0xd4	-44
72	0x01	1
73	0x0d	13
74	0xea	-22
75	0x09	9
76	0xeb	-21
77	0xdc	-36
78	0xaa	-86
79	0x1d	29
80	0x43	67
81	0x27	39
82	0x4f	79
83	0xe2	-30
84	0x40	64
85	0xd3	-45
86	0xce	-50
87	0x00	0
88	0x5c	92
89	0xd1	-47
90	0xcc	-52
91	0xa8	-88
92	0x07	7
93	0xeb	-21
94	0x5e	94
95	0xf4	-12
96	0xd2	-46
97	0xe5	-27
98	0xe4	-28
99	0xcd	-51
100	0x49	73
101	0xb2	-78
102	0xbf	-65
103	0xe2	-30
104	0x01	1
105	0xde	-34
106	0x19	25
107	0xea	-22
108	0x2c	44
109	0xe8	-24
110	0xd7	-41
111	0xe3	-29
112	0xf6	-10
113	0x13	19
114	0xf1	-15
115	0xb0	-80
116	0x8f	-113
117	0xcb	-53
118	0x47	71
119	0xc9	-55
120	0x2a	42
121	0xf2	-14
122	0x5b	91
123	0x81	-127
124	0xb1	-79
125	0xd2	-46
126	0xd4	-44
127	0x1f	31
128	0x32	50
129	0x4e	78
130	0x94	-108
131	0x54	84
132	0xc0	-64
133	0xbf	-65
134	0x5a	90
135	0xda	-38
136	0x5d	93
137	0x64	100
138	0xab	-85
139	0x99	-103
140	0x47	71
141	0xff	-1
142	0x21	33
143	0xa1	-95
144	0x60	96
145	0xeb	-21
146	0xda	-38
147	0xe4	-28
148	0x55	85
149	0x38	56
150	0x4f	79
151	0xfe	-2
152	0x9f	-97
153	0x00	0
154	0x4d	77
155	0xd3	-45
156	0x22	34
157	0x9c	-100
158	0x40	64
159	0xa9	-87
160	0x91	-111
161	0x7f	127
162	0xfb	-5
163	0x91	-111
164	0x0c	12
165	0xe6	-26
166	0xe8	-24
167	0x07	7
168	0x9e	-98
169	0x48	72
170	0xd2	-46
171	0xbb	-69
172	0xff	-1
173	0xa0	-96
174	0xf7	-9
175	0xc8	-56
176	0x0d	13
177	0x0a	10
178	0x41	65
179	0xe1	-31
180	0xd1	-47
181	0xb0	-80
182	0x50	80
183	0x00	0
184	0x78	120
185	0x42	66
186	0x30	48
187	0x0f	15
188	0x13	19
189	0x19	25
190	0x93	-109
191	0x70	112
192	0x9d	-99
193	0xca	-54
194	0xd9	-39
195	0xd0	-48
196	0xf1	-15
197	0x4f	79
198	0xd4	-44
199	0xca	-54
200	0x81	-127
201	0xc1	-63
202	0x08	8
203	0xd0	-48
204	0x3d	61
205	0x33	51
206	0xf7	-9
207	0xdd	-35
208	0xb0	-80
209	0xbe	-66
210	0xc6	-58
211	0x1f	31
212	0xa4	-92
213	0x25	37
214	0xe5	-27
215	0xaf	-81
216	0x47	71
217	0xf2	-14
218	0x9d	-99
219	0xfe	-2
220	0x53	83
221	0xaa	-86
222	0x58	88
223	0x59	89
224	0xa5	-91
225	0x13	19
226	0x2c	44
227	0x3f	63
228	0x04	4
229	0x47	71
230	0x44	68
231	0xc0	-64
232	0x4c	76
233	0x0d	13
234	0x3a	58
235	0xc0	-64
236	0xe2	-30
237	0x29	41
238	0x79	121
239	0xd3	-45
240	0x44	68
241	0x26	38
242	0x35	53
243	0x39	57
244	0x23	35
245	0x0d	13
246	0x48	72
247	0x34	52
248	0x22	34
249	0x19	25
250	0xe3	-29
251	0xec	-20
252	0xe6	-26
253	0xef	-17
254	0x95	-107
255	0xc4	-60

tfl.pseudo_qconst15 i1 [1, 11, 1, 32]
0	0xd9	-39
1	0xba	-70
2	0x28	40
3	0x5b	91
4	0xcc	-52
5	0x7f	127
6	0xaf	-81
7	0x26	38
8	0x1c	28
9	0xc0	-64
10	0x91	-111
11	0x3b	59
12	0x84	-124
13	0x30	48
14	0x71	113
15	0x8e	-114
16	0xb9	-71
17	0x7f	127
18	0xcd	-51
19	0xc6	-58
20	0x81	-127
21	0x98	-104
22	0xe7	-25
23	0xaa	-86
24	0xf3	-13
25	0xab	-85
26	0xad	-83
27	0x96	-106
28	0xe5	-27
29	0x5d	93
30	0xf6	-10
31	0x74	116
32	0xf9	-7
33	0x92	-110
34	0xf6	-10
35	0x14	20
36	0xe2	-30
37	0xfc	-4
38	0xac	-84
39	0x4c	76
40	0xea	-22
41	0x2d	45
42	0xd7	-41
43	0x45	69
44	0x7f	127
45	0x21	33
46	0xfe	-2
47	0xc2	-62
48	0xa9	-87
49	0xe3	-29
50	0xbd	-67
51	0xa7	-89
52	0x95	-107
53	0x90	-112
54	0x23	35
55	0xa0	-96
56	0xba	-70
57	0x1a	26
58	0xa0	-96
59	0xd1	-47
60	0x7b	123
61	0xc2	-62
62	0x42	66
63	0x2e	46
64	0xd9	-39
65	0x97	-105
66	0x50	80
67	0x2a	42
68	0xc5	-59
69	0x57	87
70	0xd6	-42
71	0x0a	10
72	0xee	-18
73	0xe4	-28
74	0x07	7
75	0xc6	-58
76	0xe4	-28
77	0x81	-127
78	0x81	-127
79	0x95	-107
80	0x27	39
81	0x7f	127
82	0x06	6
83	0x17	23
84	0x06	6
85	0x81	-127
86	0x02	2
87	0x52	82
88	0xcc	-52
89	0xf1	-15
90	0xb5	-75
91	0x25	37
92	0x4a	74
93	0x75	117
94	0x62	98
95	0x25	37
96	0x81	-127
97	0x81	-127
98	0x2f	47
99	0xcd	-51
100	0xdc	-36
101	0xbe	-66
102	0xd9	-39
103	0xcc	-52
104	0x2b	43
105	0x4d	77
106	0xb6	-74
107	0x30	48
108	0x2e	46
109	0x3a	58
110	0x82	-126
111	0x19	25
112	0x25	37
113	0xe5	-27
114	0x81	-127
115	0x66	102
116	0x9c	-100
117	0xb9	-71
118	0x58	88
119	0xf3	-13
120	0x1c	28
121	0xdc	-36
122	0x3a	58
123	0xed	-19
124	0x62	98
125	0x61	97
126	0x14	20
127	0x0b	11
128	0xa3	-93
129	0x12	18
130	0x01	1
131	0x18	24
132	0xdd	-35
133	0x1d	29
134	0x26	38
135	0xa0	-96
136	0xbb	-69
137	0x56	86
138	0x81	-127
139	0x65	101
140	0x39	57
141	0x4c	76
142	0x2f	47
143	0xa5	-91
144	0x5e	94
145	0xd3	-45
146	0x34	52
147	0xfa	-6
148	0xf0	-16
149	0xef	-17
150	0x5d	93
151	0x3c	60
152	0x81	-127
153	0x16	22
154	0x34	52
155	0x58	88
156	0x00	0
157	0xd2	-46
158	0xb7	-73
159	0x7f	127
160	0xe6	-26
161	0x4a	74
162	0x13	19
163	0xd6	-42
164	0x1c	28
165	0x2a	42
166	0xad	-83
167	0xe9	-23
168	0x0d	13
169	0x04	4
170	0xf6	-10
171	0x41	65
172	0x81	-127
173	0xdc	-36
174	0xde	-34
175	0x19	25
176	0x31	49
177	0xca	-54
178	0x50	80
179	0x18	24
180	0x64	100
181	0x3d	61
182	0xb5	-75
183	0x7e	126
184	0x8f	-113
185	0x81	-127
186	0x26	38
187	0x8b	-117
188	0x7f	127
189	0x36	54
190	0xf5	-11
191	0xad	-83
192	0x94	-108
193	0x63	99
194	0xd8	-40
195	0xa8	-88
196	0xd1	-47
197	0x3d	61
198	0x10	16
199	0x02	2
200	0x08	8
201	0x6f	111
202	0x79	121
203	0x59	89
204	0x25	37
205	0x16	22
206	0x75	117
207	0x7f	127
208	0x72	114
209	0xfd	-3
210	0xf6	-10
211	0x81	-127
212	0xc0	-64
213	0xd0	-48
214	0x7f	127
215	0xe3	-29
216	0x25	37
217	0x60	96
218	0x9d	-99
219	0x42	66
220	0x09	9
221	0x08	8
222	0xdb	-37
223	0x21	33
224	0xcb	-53
225	0x65	101
226	0x38	56
227	0x14	20
228	0xf5	-11
229	0x36	54
230	0x32	50
231	0x8e	-114
232	0xc2	-62
233	0x00	0
234	0xce	-50
235	0x78	120
236	0x63	99
237	0x3c	60
238	0xd5	-43
239	0x15	21
240	0x60	96
241	0xef	-17
242	0x90	-112
243	0x41	65
244	0x15	21
245	0xe1	-31
246	0x1e	30
247	0xa6	-90
248	0xcf	-49
249	0x70	112
250	0x86	-122
251	0x48	72
252	0x00	0
253	0x7f	127
254	0xb4	-76
255	0x6c	108

tfl.pseudo_qconst17 i1 [1, 7, 1, 32]
0	0x17	23
1	0xb4	-76
2	0x3d	61
3	0x6d	109
4	0x29	41
5	0x76	118
6	0x38	56
7	0x81	-127
8	0x7f	127
9	0xe5	-27
10	0xab	-85
11	0x5d	93
12	0x46	70
13	0x72	114
14	0xb4	-76
15	0xb6	-74
16	0x42	66
17	0x11	17
18	0x2a	42
19	0xa5	-91
20	0x64	100
21	0x7a	122
22	0x78	120
23	0xbf	-65
24	0x46	70
25	0x81	-127
26	0xd6	-42
27	0x87	-121
28	0xe3	-29
29	0xe5	-27
30	0xa5	-91
31	0xc9	-55
32	0x9b	-101
33	0xa5	-91
34	0x73	115
35	0x62	98
36	0x81	-127
37	0xad	-83
38	0x37	55
39	0xaa	-86
40	0x9b	-101
41	0x81	-127
42	0x32	50
43	0xef	-17
44	0x32	50
45	0x4d	77
46	0x7f	127
47	0x0c	12
48	0x22	34
49	0x81	-127
50	0x6f	111
51	0x7f	127
52	0xf7	-9
53	0x4c	76
54	0x6c	108
55	0x7f	127
56	0x32	50
57	0xde	-34
58	0xa9	-87
59	0xaf	-81
60	0x81	-127
61	0xbf	-65
62	0xc3	-61
63	0x24	36
64	0x45	69
65	0x9b	-101
66	0x7f	127
67	0x45	69
68	0xef	-17
69	0x7f	127
70	0x4d	77
71	0xb1	-79
72	0x74	116
73	0xc7	-57
74	0x04	4
75	0x13	19
76	0xc0	-64
77	0x5a	90
78	0xea	-22
79	0xf3	-13
80	0xc6	-58
81	0x66	102
82	0x43	67
83	0x70	112
84	0xbe	-66
85	0x81	-127
86	0xe4	-28
87	0x64	100
88	0x15	21
89	0x1c	28
90	0xd2	-46
91	0xcc	-52
92	0xb2	-78
93	0xa5	-91
94	0x9f	-97
95	0x81	-127
96	0xbd	-67
97	0x09	9
98	0x8f	-113
99	0xf8	-8
100	0xa8	-88
101	0x18	24
102	0xd2	-46
103	0xcc	-52
104	0xe8	-24
105	0xd1	-47
106	0x15	21
107	0xd8	-40
108	0x14	20
109	0x2e	46
110	0x6f	111
111	0x58	88
112	0xc3	-61
113	0x74	116
114	0x0f	15
115	0xae	-82
116	0x7f	127
117	0x01	1
118	0xc6	-58
119	0xa8	-88
120	0x3a	58
121	0x35	53
122	0x81	-127
123	0xab	-85
124	0xb9	-71
125	0xc8	-56
126	0x30	48
127	0x9c	-100
128	0x00	0
129	0xcd	-51
130	0x9f	-97
131	0x16	22
132	0xbc	-68
133	0xfc	-4
134	0x3b	59
135	0x02	2
136	0xf0	-16
137	0x2f	47
138	0x2a	42
139	0x3c	60
140	0x07	7
141	0x81	-127
142	0x40	64
143	0xb2	-78
144	0xbe	-66
145	0x33	51
146	0x7f	127
147	0x31	49
148	0xeb	-21
149	0x6a	106
150	0x87	-121
151	0xc7	-57
152	0x81	-127
153	0x65	101
154	0x47	71
155	0xd8	-40
156	0xc5	-59
157	0x7f	127
158	0x32	50
159	0x35	53
160	0x68	104
161	0x7f	127
162	0x61	97
163	0x34	52
164	0xb6	-74
165	0x41	65
166	0x81	-127
167	0x08	8
168	0xa3	-93
169	0xe4	-28
170	0x7f	127
171	0xd4	-44
172	0xf8	-8
173	0x2a	42
174	0xf6	-10
175	0x72	114
176	0x81	-127
177	0x78	120
178	0x11	17
179	0x8a	-118
180	0x13	19
181	0x65	101
182	0x81	-127
183	0x6e	110
184	0x04	4
185	0x25	37
186	0xf1	-15
187	0x7f	127
188	0x61	97
189	0xd6	-42
190	0xbc	-68
191	0x59	89
192	0x7f	127
193	0x1c	28
194	0x61	97
195	0x7f	127
196	0x13	19
197	0x83	-125
198	0x85	-123
199	0x7b	123
200	0xd7	-41
201	0xfa	-6
202	0x1a	26
203	0x7f	127
204	0x81	-127
205	0xd1	-47
206	0x31	49
207	0x7f	127
208	0xae	-82
209	0xc6	-58
210	0x72	114
211	0x8d	-115
212	0x34	52
213	0xe6	-26
214	0x9d	-99
215	0x64	100
216	0x26	38
217	0xd3	-45
218	0xb2	-78
219	0x24	36
220	0x2e	46
221	0x21	33
222	0x81	-127
223	0x7a	122

tfl.pseudo_qconst19 i1 [64, 1, 1, 32]
0	0x90	-112
1	0xd2	-46
2	0xce	-50
3	0xb2	-78
4	0xd4	-44
5	0x65	101
6	0x24	36
7	0xf5	-11
8	0x74	116
9	0x0d	13
10	0x50	80
11	0xf1	-15
12	0xfc	-4
13	0xdd	-35
14	0x27	39
15	0x50	80
16	0x31	49
17	0xd6	-42
18	0xcb	-53
19	0x48	72
20	0x1b	27
21	0xcf	-49
22	0x8b	-117
23	0x8f	-113
24	0x32	50
25	0x1b	27
26	0xc9	-55
27	0xf0	-16
28	0xbb	-69
29	0x7f	127
30	0x5a	90
31	0x5d	93
32	0x64	100
33	0xf4	-12
34	0x2f	47
35	0xbd	-67
36	0x38	56
37	0xde	-34
38	0x81	-127
39	0x9c	-100
40	0x54	84
41	0x1f	31
42	0x0b	11
43	0x10	16
44	0x14	20
45	0x2e	46
46	0x54	84
47	0xda	-38
48	0x54	84
49	0x70	112
50	0x54	84
51	0x4e	78
52	0xaf	-81
53	0xcf	-49
54	0x31	49
55	0x91	-111
56	0xcd	-51
57	0x7b	123
58	0xda	-38
59	0xe1	-31
60	0x5b	91
61	0x26	38
62	0x07	7
63	0xf2	-14
64	0xb3	-77
65	0xfc	-4
66	0x32	50
67	0xee	-18
68	0x03	3
69	0x02	2
70	0x02	2
71	0x0e	14
72	0x34	52
73	0x05	5
74	0x0c	12
75	0x45	69
76	0xda	-38
77	0xf4	-12
78	0x0d	13
79	0xde	-34
80	0xd9	-39
81	0x7f	127
82	0x3b	59
83	0x28	40
84	0x30	48
85	0x35	53
86	0x07	7
87	0x67	103
88	0xdf	-33
89	0xcf	-49
90	0xeb	-21
91	0x2c	44
92	0xed	-19
93	0x14	20
94	0xce	-50
95	0xd6	-42
96	0x20	32
97	0xf8	-8
98	0x2a	42
99	0xea	-22
100	0xe3	-29
101	0x32	50
102	0xe5	-27
103	0xcf	-49
104	0x4c	76
105	0x24	36
106	0x0a	10
107	0xd8	-40
108	0x12	18
109	0xf6	-10
110	0x06	6
111	0x44	68
112	0x7f	127
113	0xc2	-62
114	0xb5	-75
115	0xf9	-7
116	0x6f	111
117	0x5b	91
118	0xa1	-95
119	0xe3	-29
120	0x9e	-98
121	0xc4	-60
122	0x1e	30
123	0x03	3
124	0xf4	-12
125	0xad	-83
126	0x70	112
127	0x00	0
128	0x66	102
129	0xe0	-32
130	0xd1	-47
131	0x0b	11
132	0xc5	-59
133	0xae	-82
134	0xb3	-77
135	0xb0	-80
136	0xe8	-24
137	0x21	33
138	0xb1	-79
139	0x4e	78
140	0x0e	14
141	0x30	48
142	0x82	-126
143	0xaf	-81
144	0x65	101
145	0xba	-70
146	0xea	-22
147	0x35	53
148	0xee	-18
149	0x46	70
150	0xaa	-86
151	0x1b	27
152	0x03	3
153	0xe6	-26
154	0x7f	127
155	0x9c	-100
156	0x3c	60
157	0x11	17
158	0xe0	-32
159	0xe7	-25
160	0x05	5
161	0x1f	31
162	0xbc	-68
163	0xaa	-86
164	0x14	20
165	0xe0	-32
166	0x04	4
167	0x62	98
168	0x61	97
169	0xa1	-95
170	0xc7	-57
171	0xfd	-3
172	0xe4	-28
173	0xd1	-47
174	0xc6	-58
175	0x81	-127
176	0xe6	-26
177	0xaa	-86
178	0x9d	-99
179	0x1f	31
180	0x06	6
181	0x2c	44
182	0x8f	-113
183	0x4a	74
184	0xcd	-51
185	0x05	5
186	0xd6	-42
187	0x21	33
188	0xed	-19
189	0xf3	-13
190	0xbb	-69
191	0xf1	-15
192	0x48	72
193	0x04	4
194	0xb3	-77
195	0xa4	-92
196	0xd5	-43
197	0xe3	-29
198	0xf4	-12
199	0x2f	47
200	0x47	71
201	0x5a	90
202	0x03	3
203	0xe0	-32
204	0x1b	27
205	0x04	4
206	0x48	72
207	0xae	-82
208	0xef	-17
209	0x81	-127
210	0x04	4
211	0xff	-1
212	0x39	57
213	0xae	-82
214	0xd9	-39
215	0x35	53
216	0xd3	-45
217	0x49	73
218	0x13	19
219	0x03	3
220	0xf3	-13
221	0x5c	92
222	0x02	2
223	0x70	112
224	0x28	40
225	0xf4	-12
226	0x7b	123
227	0xde	-34
228	0xf2	-14
229	0xa7	-89
230	0x4e	78
231	0xbd	-67
232	0x81	-127
233	0xdc	-36
234	0x4d	77
235	0xa8	-88
236	0x14	20
237	0xb5	-75
238	0xfd	-3
239	0xb9	-71
240	0xe4	-28
241	0x04	4
242	0x23	35
243	0xc4	-60
244	0xb3	-77
245	0x89	-119
246	0x09	9
247	0x64	100
248	0x46	70
249	0xb1	-79
250	0xf9	-7
251	0xec	-20
252	0xe6	-26
253	0x5b	91
254	0x0e	14
255	0xef	-17

tfl.pseudo_qconst21 i1 [1, 5, 1, 32]
0	0x4b	75
1	0xdd	-35
2	0x16	22
3	0x68	104
4	0x7e	126
5	0x66	102
6	0xfe	-2
7	0x30	48
8	0xdf	-33
9	0x8b	-117
10	0x5f	95
11	0x81	-127
12	0xe8	-24
13	0x02	2
14	0xfc	-4
15	0x81	-127
16	0x7f	127
17	0xe0	-32
18	0x81	-127
19	0xff	-1
20	0x2d	45
21	0x07	7
22	0x26	38
23	0x7f	127
24	0x81	-127
25	0x7f	127
26	0x67	103
27	0x81	-127
28	0x19	25
29	0x81	-127
30	0xf0	-16
31	0xa0	-96
32	0x2c	44
33	0xbf	-65
34	0x7f	127
35	0x04	4
36	0xb2	-78
37	0xb7	-73
38	0x81	-127
39	0x2c	44
40	0x37	55
41	0xf1	-15
42	0x72	114
43	0x03	3
44	0x81	-127
45	0xb5	-75
46	0x81	-127
47	0x32	50
48	0xa2	-94
49	0x11	17
50	0x67	103
51	0x83	-125
52	0xa0	-96
53	0x7f	127
54	0x21	33
55	0xcd	-51
56	0x90	-112
57	0xe9	-23
58	0x81	-127
59	0xd0	-48
60	0xc6	-58
61	0x47	71
62	0x4f	79
63	0x49	73
64	0x1e	30
65	0xba	-70
66	0x43	67
67	0xef	-17
68	0x81	-127
69	0xdd	-35
70	0x19	25
71	0x3e	62
72	0x81	-127
73	0x8c	-116
74	0x3c	60
75	0xc4	-60
76	0x04	4
77	0x81	-127
78	0x1b	27
79	0xcb	-53
80	0x98	-104
81	0x59	89
82	0xd6	-42
83	0xb0	-80
84	0x0c	12
85	0x41	65
86	0x33	51
87	0x93	-109
88	0x58	88
89	0xfd	-3
90	0xce	-50
91	0xc0	-64
92	0x9b	-101
93	0xd1	-47
94	0x1b	27
95	0xcf	-49
96	0x11	17
97	0x81	-127
98	0x1c	28
99	0x81	-127
100	0x98	-104
101	0xca	-54
102	0x8e	-114
103	0x81	-127
104	0x25	37
105	0x81	-127
106	0x81	-127
107	0x91	-111
108	0x31	49
109	0x13	19
110	0x69	105
111	0x71	113
112	0xd2	-46
113	0x9e	-98
114	0x5d	93
115	0x81	-127
116	0x81	-127
117	0x19	25
118	0xd4	-44
119	0xb1	-79
120	0xe4	-28
121	0x46	70
122	0x5a	90
123	0x32	50
124	0xf6	-10
125	0x63	99
126	0x2d	45
127	0x73	115
128	0x7f	127
129	0xd6	-42
130	0x2e	46
131	0x54	84
132	0x73	115
133	0x81	-127
134	0xc5	-59
135	0x9b	-101
136	0xf2	-14
137	0xc2	-62
138	0xf6	-10
139	0xaf	-81
140	0xed	-19
141	0xbe	-66
142	0x41	65
143	0x43	67
144	0x2b	43
145	0x81	-127
146	0x5b	91
147	0xfe	-2
148	0x49	73
149	0x40	64
150	0x81	-127
151	0x4a	74
152	0x51	81
153	0x49	73
154	0x7a	122
155	0xec	-20
156	0x81	-127
157	0x6f	111
158	0x81	-127
159	0x81	-127

tfl.pseudo_qconst23 i1 [32, 5, 1, 40]
0	0x77	119
1	0xf2	-14
2	0x3c	60
3	0x8c	-116
4	0xdd	-35
5	0xb5	-75
6	0x1e	30
7	0xfa	-6
8	0xbc	-68
9	0xce	-50
10	0x33	51
11	0x37	55
12	0x0d	13
13	0x47	71
14	0xc9	-55
15	0xb7	-73
16	0xa9	-87
17	0x3e	62
18	0xd4	-44
19	0x1e	30
20	0xc6	-58
21	0xa4	-92
22	0xe8	-24
23	0xe6	-26
24	0x97	-105
25	0xf9	-7
26	0xab	-85
27	0x25	37
28	0x1a	26
29	0x3c	60
30	0xc1	-63
31	0x29	41
32	0x21	33
33	0x10	16
34	0x09	9
35	0x09	9
36	0x98	-104
37	0x13	19
38	0x0c	12
39	0x27	39
40	0x1f	31
41	0x0d	13
42	0xe9	-23
43	0xd0	-48
44	0xf7	-9
45	0x92	-110
46	0x1f	31
47	0xa7	-89
48	0x1a	26
49	0x53	83
50	0xcd	-51
51	0xda	-38
52	0xfc	-4
53	0xa3	-93
54	0x64	100
55	0xfd	-3
56	0x55	85
57	0xed	-19
58	0x18	24
59	0x28	40
60	0xb9	-71
61	0x0c	12
62	0x12	18
63	0xc2	-62
64	0xa5	-91
65	0x89	-119
66	0x08	8
67	0xf2	-14
68	0x93	-109
69	0x4a	74
70	0x06	6
71	0x41	65
72	0xa1	-95
73	0x03	3
74	0xf7	-9
75	0x32	50
76	0xcc	-52
77	0xa7	-89
78	0x07	7
79	0x4a	74
80	0x1c	28
81	0x84	-124
82	0xba	-70
83	0x1e	30
84	0xa5	-91
85	0xd1	-47
86	0xe3	-29
87	0xa0	-96
88	0x27	39
89	0x4b	75
90	0x00	0
91	0xbf	-65
92	0xaa	-86
93	0xb0	-80
94	0xfd	-3
95	0xcd	-51
96	0x0a	10
97	0xc3	-61
98	0x01	1
99	0x29	41
100	0xc3	-61
101	0xaa	-86
102	0x15	21
103	0xed	-19
104	0x4e	78
105	0xb4	-76
106	0xe3	-29
107	0xcf	-49
108	0xf3	-13
109	0xcd	-51
110	0x42	66
111	0x27	39
112	0xf7	-9
113	0xfb	-5
114	0xd6	-42
115	0x59	89
116	0xf1	-15
117	0x52	82
118	0xe4	-28
119	0xdb	-37
120	0xc8	-56
121	0xba	-70
122	0x2c	44
123	0xc8	-56
124	0x4b	75
125	0xca	-54
126	0x1a	26
127	0xa4	-92
128	0x13	19
129	0xa6	-90
130	0xa0	-96
131	0x17	23
132	0xcb	-53
133	0xff	-1
134	0x2b	43
135	0x3d	61
136	0xec	-20
137	0xcb	-53
138	0x0b	11
139	0x1b	27
140	0x1e	30
141	0x99	-103
142	0xfd	-3
143	0xdf	-33
144	0x40	64
145	0xbd	-67
146	0xfd	-3
147	0xda	-38
148	0x34	52
149	0xd3	-45
150	0x66	102
151	0x4a	74
152	0xfb	-5
153	0x07	7
154	0xf1	-15
155	0x0b	11
156	0x0e	14
157	0x28	40
158	0x61	97
159	0x6b	107
160	0x34	52
161	0x93	-109
162	0xc4	-60
163	0x25	37
164	0xd0	-48
165	0xb7	-73
166	0xd7	-41
167	0x94	-108
168	0x43	67
169	0x12	18
170	0x2f	47
171	0x29	41
172	0xee	-18
173	0x45	69
174	0x06	6
175	0xc3	-61
176	0x13	19
177	0x14	20
178	0xeb	-21
179	0xb9	-71
180	0x30	48
181	0xba	-70
182	0xf0	-16
183	0x3a	58
184	0xfa	-6
185	0x81	-127
186	0x05	5
187	0x54	84
188	0xfc	-4
189	0x34	52
190	0x19	25
191	0xde	-34
192	0x49	73
193	0x5e	94
194	0xc5	-59
195	0x77	119
196	0x2d	45
197	0xbc	-68
198	0x4e	78
199	0x13	19
200	0xe1	-31
201	0xac	-84
202	0xc0	-64
203	0xf0	-16
204	0x8c	-116
205	0xc4	-60
206	0x26	38
207	0x1f	31
208	0x8f	-113
209	0x42	66
210	0x4d	77
211	0x6c	108
212	0x1c	28
213	0x19	25
214	0x8d	-115
215	0xdf	-33
216	0xbe	-66
217	0xfa	-6
218	0xaa	-86
219	0xb4	-76
220	0xdd	-35
221	0x17	23
222	0x3d	61
223	0x79	121
224	0xc5	-59
225	0x14	20
226	0xdd	-35
227	0xdf	-33
228	0x33	51
229	0x5e	94
230	0xca	-54
231	0x02	2
232	0xe3	-29
233	0x38	56
234	0xd0	-48
235	0x37	55
236	0x30	48
237	0xd1	-47
238	0xfb	-5
239	0xeb	-21
240	0xff	-1
241	0x06	6
242	0x16	22
243	0x6d	109
244	0x3a	58
245	0x3b	59
246	0x1f	31
247	0xdc	-36
248	0x12	18
249	0x10	16
250	0xbb	-69
251	0xf6	-10
252	0x03	3
253	0x79	121
254	0xb1	-79
255	0xe1	-31

tfl.pseudo_qconst24 i1 [1, 14, 1, 64] scale=0.047447674 zero_point=-128
0	0x80	0.0
1	0x80	0.0
2	0x80	0.0
3	0x80	0.0
4	0x80	0.0
5	0x80	0.0
6	0x80	0.0
7	0x80	0.0
8	0x80	0.0
9	0x80	0.0
10	0x80	0.0
11	0x80	0.0
12	0x80	0.0
13	0x80	0.0
14	0x80	0.0
15	0x80	0.0
16	0x80	0.0
17	0x80	0.0
18	0x80	0.0
19	0x80	0.0
20	0x80	0.0
21	0x80	0.0
22	0x80	0.0
23	0x80	0.0
24	0x80	0.0
25	0x80	0.0
26	0x80	0.0
27	0x80	0.0
28	0x80	0.0
29	0x80	0.0
30	0x80	0.0
31	0x80	0.0
32	0x80	0.0
33	0x80	0.0
34	0x80	0.0
35	0x80	0.0
36	0x80	0.0
37	0x80	0.0
38	0x80	0.0
39	0x80	0.0
40	0x80	0.0
41	0x80	0.0
42	0x80	0.0
43	0x80	0.0
44	0x80	0.0
45	0x80	0.0
46	0x80	0.0
47	0x80	0.0
48	0x80	0.0
49	0x80	0.0
50	0x80	0.0
51	0x80	0.0
52	0x80	0.0
53	0x80	0.0
54	0x80	0.0
55	0x80	0.0
56	0x80	0.0
57	0x80	0.0
58	0x80	0.0
59	0x80	0.0
60	0x80	0.0
61	0x80	0.0
62	0x80	0.0
63	0x80	0.0
64	0x80	0.0
65	0x80	0.0
66	0x80	0.0
67	0x80	0.0
68	0x80	0.0
69	0x80	0.0
70	0x80	0.0
71	0x80	0.0
72	0x80	0.0
73	0x80	0.0
74	0x80	0.0
75	0x80	0.0
76	0x80	0.0
77	0x80	0.0
78	0x80	0.0
79	0x80	0.0
80	0x80	0.0
81	0x80	0.0
82	0x80	0.0
83	0x80	0.0
84	0x80	0.0
85	0x80	0.0
86	0x80	0.0
87	0x80	0.0
88	0x80	0.0
89	0x80	0.0
90	0x80	0.0
91	0x80	0.0
92	0x80	0.0
93	0x80	0.0
94	0x80	0.0
95	0x80	0.0
96	0x80	0.0
97	0x80	0.0
98	0x80	0.0
99	0x80	0.0
100	0x80	0.0
101	0x80	0.0
102	0x80	0.0
103	0x80	0.0
104	0x80	0.0
105	0x80	0.0
106	0x80	0.0
107	0x80	0.0
108	0x80	0.0
109	0x80	0.0
110	0x80	0.0
111	0x80	0.0
112	0x80	0.0
113	0x80	0.0
114	0x80	0.0
115	0x80	0.0
116	0x80	0.0
117	0x80	0.0
118	0x80	0.0
119	0x80	0.0
120	0x80	0.0
121	0x80	0.0
122	0x80	0.0
123	0x80	0.0
124	0x80	0.0
125	0x80	0.0
126	0x80	0.0
127	0x80	0.0
128	0x80	0.0
129	0x80	0.0
130	0x80	0.0
131	0x80	0.0
132	0x80	0.0
133	0x80	0.0
134	0x80	0.0
135	0x80	0.0
136	0x80	0.0
137	0x80	0.0
138	0x80	0.0
139	0x80	0.0
140	0x80	0.0
141	0x80	0.0
142	0x80	0.0
143	0x80	0.0
144	0x80	0.0
145	0x80	0.0
146	0x80	0.0
147	0x80	0.0
148	0x80	0.0
149	0x80	0.0
150	0x80	0.0
151	0x80	0.0
152	0x80	0.0
153	0x80	0.0
154	0x80	0.0
155	0x80	0.0
156	0x80	0.0
157	0x80	0.0
158	0x80	0.0
159	0x80	0.0
160	0x80	0.0
161	0x80	0.0
162	0x80	0.0
163	0x80	0.0
164	0x80	0.0
165	0x80	0.0
166	0x80	0.0
167	0x80	0.0
168	0x80	0.0
169	0x80	0.0
170	0x80	0.0
171	0x80	0.0
172	0x80	0.0
173	0x80	0.0
174	0x80	0.0
175	0x80	0.0
176	0x80	0.0
177	0x80	0.0
178	0x80	0.0
179	0x80	0.0
180	0x80	0.0
181	0x80	0.0
182	0x80	0.0
183	0x80	0.0
184	0x80	0.0
185	0x80	0.0
186	0x80	0.0
187	0x80	0.0
188	0x80	0.0
189	0x80	0.0
190	0x80	0.0
191	0x80	0.0
192	0x80	0.0
193	0x80	0.0
194	0x80	0.0
195	0x80	0.0
196	0x80	0.0
197	0x80	0.0
198	0x80	0.0
199	0x80	0.0
200	0x80	0.0
201	0x80	0.0
202	0x80	0.0
203	0x80	0.0
204	0x80	0.0
205	0x80	0.0
206	0x80	0.0
207	0x80	0.0
208	0x80	0.0
209	0x80	0.0
210	0x80	0.0
211	0x80	0.0
212	0x80	0.0
213	0x80	0.0
214	0x80	0.0
215	0x80	0.0
216	0x80	0.0
217	0x80	0.0
218	0x80	0.0
219	0x80	0.0
220	0x80	0.0
221	0x80	0.0
222	0x80	0.0
223	0x80	0.0
224	0x80	0.0
225	0x80	0.0
226	0x80	0.0
227	0x80	0.0
228	0x80	0.0
229	0x80	0.0
230	0x80	0.0
231	0x80	0.0
232	0x80	0.0
233	0x80	0.0
234	0x80	0.0
235	0x80	0.0
236	0x80	0.0
237	0x80	0.0
238	0x80	0.0
239	0x80	0.0
240	0x80	0.0
241	0x80	0.0
242	0x80	0.0
243	0x80	0.0
244	0x80	0.0
245	0x80	0.0
246	0x80	0.0
247	0x80	0.0
248	0x80	0.0
249	0x80	0.0
250	0x80	0.0
251	0x80	0.0
252	0x80	0.0
253	0x80	0.0
254	0x80	0.0
255	0x80	0.0

tfl.pseudo_qconst25 i1 [1, 10, 1, 64] scale=0.04632959 zero_point=-128
0	0x80	0.0
1	0x80	0.0
2	0x80	0.0
3	0x80	0.0
4	0x80	0.0
5	0x80	0.0
6	0x80	0.0
7	0x80	0.0
8	0x80	0.0
9	0x80	0.0
10	0x80	0.0
11	0x80	0.0
12	0x80	0.0
13	0x80	0.0
14	0x80	0.0
15	0x80	0.0
16	0x80	0.0
17	0x80	0.0
18	0x80	0.0
19	0x80	0.0
20	0x80	0.0
21	0x80	0.0
22	0x80	0.0
23	0x80	0.0
24	0x80	0.0
25	0x80	0.0
26	0x80	0.0
27	0x80	0.0
28	0x80	0.0
29	0x80	0.0
30	0x80	0.0
31	0x80	0.0
32	0x80	0.0
33	0x80	0.0
34	0x80	0.0
35	0x80	0.0
36	0x80	0.0
37	0x80	0.0
38	0x80	0.0
39	0x80	0.0
40	0x80	0.0
41	0x80	0.0
42	0x80	0.0
43	0x80	0.0
44	0x80	0.0
45	0x80	0.0
46	0x80	0.0
47	0x80	0.0
48	0x80	0.0
49	0x80	0.0
50	0x80	0.0
51	0x80	0.0
52	0x80	0.0
53	0x80	0.0
54	0x80	0.0
55	0x80	0.0
56	0x80	0.0
57	0x80	0.0
58	0x80	0.0
59	0x80	0.0
60	0x80	0.0
61	0x80	0.0
62	0x80	0.0
63	0x80	0.0
64	0x80	0.0
65	0x80	0.0
66	0x80	0.0
67	0x80	0.0
68	0x80	0.0
69	0x80	0.0
70	0x80	0.0
71	0x80	0.0
72	0x80	0.0
73	0x80	0.0
74	0x80	0.0
75	0x80	0.0
76	0x80	0.0
77	0x80	0.0
78	0x80	0.0
79	0x80	0.0
80	0x80	0.0
81	0x80	0.0
82	0x80	0.0
83	0x80	0.0
84	0x80	0.0
85	0x80	0.0
86	0x80	0.0
87	0x80	0.0
88	0x80	0.0
89	0x80	0.0
90	0x80	0.0
91	0x80	0.0
92	0x80	0.0
93	0x80	0.0
94	0x80	0.0
95	0x80	0.0
96	0x80	0.0
97	0x80	0.0
98	0x80	0.0
99	0x80	0.0
100	0x80	0.0
101	0x80	0.0
102	0x80	0.0
103	0x80	0.0
104	0x80	0.0
105	0x80	0.0
106	0x80	0.0
107	0x80	0.0
108	0x80	0.0
109	0x80	0.0
110	0x80	0.0
111	0x80	0.0
112	0x80	0.0
113	0x80	0.0
114	0x80	0.0
115	0x80	0.0
116	0x80	0.0
117	0x80	0.0
118	0x80	0.0
119	0x80	0.0
120	0x80	0.0
121	0x80	0.0
122	0x80	0.0
123	0x80	0.0
124	0x80	0.0
125	0x80	0.0
126	0x80	0.0
127	0x80	0.0
128	0x80	0.0
129	0x80	0.0
130	0x80	0.0
131	0x80	0.0
132	0x80	0.0
133	0x80	0.0
134	0x80	0.0
135	0x80	0.0
136	0x80	0.0
137	0x80	0.0
138	0x80	0.0
139	0x80	0.0
140	0x80	0.0
141	0x80	0.0
142	0x80	0.0
143	0x80	0.0
144	0x80	0.0
145	0x80	0.0
146	0x80	0.0
147	0x80	0.0
148	0x80	0.0
149	0x80	0.0
150	0x80	0.0
151	0x80	0.0
152	0x80	0.0
153	0x80	0.0
154	0x80	0.0
155	0x80	0.0
156	0x80	0.0
157	0x80	0.0
158	0x80	0.0
159	0x80	0.0
160	0x80	0.0
161	0x80	0.0
162	0x80	0.0
163	0x80	0.0
164	0x80	0.0
165	0x80	0.0
166	0x80	0.0
167	0x80	0.0
168	0x80	0.0
169	0x80	0.0
170	0x80	0.0
171	0x80	0.0
172	0x80	0.0
173	0x80	0.0
174	0x80	0.0
175	0x80	0.0
176	0x80	0.0
177	0x80	0.0
178	0x80	0.0
179	0x80	0.0
180	0x80	0.0
181	0x80	0.0
182	0x80	0.0
183	0x80	0.0
184	0x80	0.0
185	0x80	0.0
186	0x80	0.0
187	0x80	0.0
188	0x80	0.0
189	0x80	0.0
190	0x80	0.0
191	0x80	0.0
192	0x80	0.0
193	0x80	0.0
194	0x80	0.0
195	0x80	0.0
196	0x80	0.0
197	0x80	0.0
198	0x80	0.0
199	0x80	0.0
200	0x80	0.0
201	0x80	0.0
202	0x80	0.0
203	0x80	0.0
204	0x80	0.0
205	0x80	0.0
206	0x80	0.0
207	0x80	0.0
208	0x80	0.0
209	0x80	0.0
210	0x80	0.0
211	0x80	0.0
212	0x80	0.0
213	0x80	0.0
214	0x80	0.0
215	0x80	0.0
216	0x80	0.0
217	0x80	0.0
218	0x80	0.0
219	0x80	0.0
220	0x80	0.0
221	0x80	0.0
222	0x80	0.0
223	0x80	0.0
224	0x80	0.0
225	0x80	0.0
226	0x80	0.0
227	0x80	0.0
228	0x80	0.0
229	0x80	0.0
230	0x80	0.0
231	0x80	0.0
232	0x80	0.0
233	0x80	0.0
234	0x80	0.0
235	0x80	0.0
236	0x80	0.0
237	0x80	0.0
238	0x80	0.0
239	0x80	0.0
240	0x80	0.0
241	0x80	0.0
242	0x80	0.0
243	0x80	0.0
244	0x80	0.0
245	0x80	0.0
246	0x80	0.0
247	0x80	0.0
248	0x80	0.0
249	0x80	0.0
250	0x80	0.0
251	0x80	0.0
252	0x80	0.0
253	0x80	0.0
254	0x80	0.0
255	0x80	0.0

tfl.pseudo_qconst26 i1 [1, 4, 1, 32] scale=0.35360608 zero_point=-128
0	0x80	0.0
1	0x80	0.0
2	0x80	0.0
3	0x80	0.0
4	0x80	0.0
5	0x80	0.0
6	0x80	0.0
7	0x80	0.0
8	0x80	0.0
9	0x80	0.0
10	0x80	0.0
11	0x80	0.0
12	0x80	0.0
13	0x80	0.0
14	0x80	0.0
15	0x80	0.0
16	0x80	0.0
17	0x80	0.0
18	0x80	0.0
19	0x80	0.0
20	0x80	0.0
21	0x80	0.0
22	0x80	0.0
23	0x80	0.0
24	0x80	0.0
25	0x80	0.0
26	0x80	0.0
27	0x80	0.0
28	0x80	0.0
29	0x80	0.0
30	0x80	0.0
31	0x80	0.0
32	0x80	0.0
33	0x80	0.0
34	0x80	0.0
35	0x80	0.0
36	0x80	0.0
37	0x80	0.0
38	0x80	0.0
39	0x80	0.0
40	0x80	0.0
41	0x80	0.0
42	0x80	0.0
43	0x80	0.0
44	0x80	0.0
45	0x80	0.0
46	0x80	0.0
47	0x80	0.0
48	0x80	0.0
49	0x80	0.0
50	0x80	0.0
51	0x80	0.0
52	0x80	0.0
53	0x80	0.0
54	0x80	0.0
55	0x80	0.0
56	0x80	0.0
57	0x80	0.0
58	0x80	0.0
59	0x80	0.0
60	0x80	0.0
61	0x80	0.0
62	0x80	0.0
63	0x80	0.0
64	0x80	0.0
65	0x80	0.0
66	0x80	0.0
67	0x80	0.0
68	0x80	0.0
69	0x80	0.0
70	0x80	0.0
71	0x80	0.0
72	0x80	0.0
73	0x80	0.0
74	0x80	0.0
75	0x80	0.0
76	0x80	0.0
77	0x80	0.0
78	0x80	0.0
79	0x80	0.0
80	0x80	0.0
81	0x80	0.0
82	0x80	0.0
83	0x80	0.0
84	0x80	0.0
85	0x80	0.0
86	0x80	0.0
87	0x80	0.0
88	0x80	0.0
89	0x80	0.0
90	0x80	0.0
91	0x80	0.0
92	0x80	0.0
93	0x80	0.0
94	0x80	0.0
95	0x80	0.0
96	0x80	0.0
97	0x80	0.0
98	0x80	0.0
99	0x80	0.0
100	0x80	0.0
101	0x80	0.0
102	0x80	0.0
103	0x80	0.0
104	0x80	0.0
105	0x80	0.0
106	0x80	0.0
107	0x80	0.0
108	0x80	0.0
109	0x80	0.0
110	0x80	0.0
111	0x80	0.0
112	0x80	0.0
113	0x80	0.0
114	0x80	0.0
115	0x80	0.0
116	0x80	0.0
117	0x80	0.0
118	0x80	0.0
119	0x80	0.0
120	0x80	0.0
121	0x80	0.0
122	0x80	0.0
123	0x80	0.0
124	0x80	0.0
125	0x80	0.0
126	0x80	0.0
127	0x80	0.0

tfl.pseudo_qconst27 i1 [1, 4, 1, 40] scale=0.099417895 zero_point=-128
0	0x80	0.0
1	0x80	0.0
2	0x80	0.0
3	0x80	0.0
4	0x80	0.0
5	0x80	0.0
6	0x80	0.0
7	0x80	0.0
8	0x80	0.0
9	0x80	0.0
10	0x80	0.0
11	0x80	0.0
12	0x80	0.0
13	0x80	0.0
14	0x80	0.0
15	0x80	0.0
16	0x80	0.0
17	0x80	0.0
18	0x80	0.0
19	0x80	0.0
20	0x80	0.0
21	0x80	0.0
22	0x80	0.0
23	0x80	0.0
24	0x80	0.0
25	0x80	0.0
26	0x80	0.0
27	0x80	0.0
28	0x80	0.0
29	0x80	0.0
30	0x80	0.0
31	0x80	0.0
32	0x80	0.0
33	0x80	0.0
34	0x80	0.0
35	0x80	0.0
36	0x80	0.0
37	0x80	0.0
38	0x80	0.0
39	0x80	0.0
40	0x80	0.0
41	0x80	0.0
42	0x80	0.0
43	0x80	0.0
44	0x80	0.0
45	0x80	0.0
46	0x80	0.0
47	0x80	0.0
48	0x80	0.0
49	0x80	0.0
50	0x80	0.0
51	0x80	0.0
52	0x80	0.0
53	0x80	0.0
54	0x80	0.0
55	0x80	0.0
56	0x80	0.0
57	0x80	0.0
58	0x80	0.0
59	0x80	0.0
60	0x80	0.0
61	0x80	0.0
62	0x80	0.0
63	0x80	0.0
64	0x80	0.0
65	0x80	0.0
66	0x80	0.0
67	0x80	0.0
68	0x80	0.0
69	0x80	0.0
70	0x80	0.0
71	0x80	0.0
72	0x80	0.0
73	0x80	0.0
74	0x80	0.0
75	0x80	0.0
76	0x80	0.0
77	0x80	0.0
78	0x80	0.0
79	0x80	0.0
80	0x80	0.0
81	0x80	0.0
82	0x80	0.0
83	0x80	0.0
84	0x80	0.0
85	0x80	0.0
86	0x80	0.0
87	0x80	0.0
88	0x80	0.0
89	0x80	0.0
90	0x80	0.0
91	0x80	0.0
92	0x80	0.0
93	0x80	0.0
94	0x80	0.0
95	0x80	0.0
96	0x80	0.0
97	0x80	0.0
98	0x80	0.0
99	0x80	0.0
100	0x80	0.0
101	0x80	0.0
102	0x80	0.0
103	0x80	0.0
104	0x80	0.0
105	0x80	0.0
106	0x80	0.0
107	0x80	0.0
108	0x80	0.0
109	0x80	0.0
110	0x80	0.0
111	0x80	0.0
112	0x80	0.0
113	0x80	0.0
114	0x80	0.0
115	0x80	0.0
116	0x80	0.0
117	0x80	0.0
118	0x80	0.0
119	0x80	0.0
120	0x80	0.0
121	0x80	0.0
122	0x80	0.0
123	0x80	0.0
124	0x80	0.0
125	0x80	0.0
126	0x80	0.0
127	0x80	0.0
128	0x80	0.0
129	0x80	0.0
130	0x80	0.0
131	0x80	0.0
132	0x80	0.0
133	0x80	0.0
134	0x80	0.0
135	0x80	0.0
136	0x80	0.0
137	0x80	0.0
138	0x80	0.0
139	0x80	0.0
140	0x80	0.0
141	0x80	0.0
142	0x80	0.0
143	0x80	0.0
144	0x80	0.0
145	0x80	0.0
146	0x80	0.0
147	0x80	0.0
148	0x80	0.0
149	0x80	0.0
150	0x80	0.0
151	0x80	0.0
152	0x80	0.0
153	0x80	0.0
154	0x80	0.0
155	0x80	0.0
156	0x80	0.0
157	0x80	0.0
158	0x80	0.0
159	0x80	0.0
