stream_state_internal_quant.tflite (tflite, 60768 bytes, 18 tensors)

tfl.pseudo_qconst1 i1 [1, 1088] scale=0.0012265338 zero_point=0
00000000: 08ed d3f9 061f daed d3ec 23b6 d21c 9ff2
00000010: 05b9 aeef 0b01 e7da e0ed f716 feea 12e2
00000020: 14bd fc26 bf05 c01f b026 e0bb 0dfd 07e2
00000030: f832 01fc b3b4 2bcf f8f1 b025 fc17 d6e8
00000040: 08ef f6c6 22ed f0be c8d8 25b1 25ea aac4
00000050: c9d0 b0e1 d100 cd29 35eb cffb c6f7 03af
00000060: 23c3 f505 dec2 07eb 251e 0e01 f0b3 1fb0
00000070: b33a e4f0 aa12 24f8 d7de a30d c8f5 0b20
00000080: 09ae 1828 eb2a a6bd c0f1 e4dc 1329 e1a7
00000090: fd0b cc02 0de4 ca26 1300 fe1c f8be d8d5
000000a0: 081d f10b d5de bef8 05f2 d3cc c817 efa2
000000b0: 0f04 2ff4 c8ed f8b1 1cdc cc0f f9e9 e0ee
000000c0: e7b7 15ba c508 a4f5 e1e5 e1f2 c21c bc0e
000000d0: ebdc e804 10ce c4e5 2cf6 f8f8 c2bb b3f9
000000e0: 16fc e5da 1a24 a1b0 f808 a1d7 01d8 1ef8
000000f0: f8e2 f9cc c2fe 1bdf 1bca 04c0 e1fb e2d1
0.00981227 -0.023304142 -0.05519402 -0.008585736 0.007359203 0.038022548 -0.046608284 -0.023304142
-0.05519402 -0.024530675 0.04292868 -0.0907635 -0.056420553 0.034342945 -0.11897378 -0.017171472
0.006132669 -0.0870839 -0.10057577 -0.020851074 0.013491872 0.0012265338 -0.030663345 -0.046608284
-0.03924908 -0.023304142 -0.011038804 0.026983744 -0.0024530676 -0.026983744 0.022077609 -0.036796015
0.024530675 -0.082177766 -0.004906135 0.046608284 -0.0797247 0.006132669 -0.07849816 0.038022548
-0.0981227 0.046608284 -0.03924908 -0.08463083 0.01594494 -0.0036796015 0.008585736 -0.036796015
-0.00981227 0.06132669 0.0012265338 -0.004906135 -0.094443105 -0.09321657 0.052740954 -0.060100157
-0.00981227 -0.018398007 -0.0981227 0.04538175 -0.004906135 0.028210277 -0.05151442 -0.029436812
0.00981227 -0.020851074 -0.012265338 -0.07113896 0.041702148 -0.023304142 -0.01962454 -0.08095123
-0.06868589 -0.04906135 0.04538175 -0.09689617 0.04538175 -0.026983744 -0.10548191 -0.07359203
-0.06745936 -0.058873624 -0.0981227 -0.038022548 -0.057647087 0.0 -0.06255322 0.050287884
0.06500629 -0.02575721 -0.060100157 -0.006132669 -0.07113896 -0.011038804 0.0036796015 -0.09934924
0.04292868 -0.07481856 -0.013491872 0.006132669 -0.041702148 -0.076045096 0.008585736 -0.02575721
0.04538175 0.036796015 0.017171472 0.0012265338 -0.01962454 -0.094443105 0.038022548 -0.0981227
-0.094443105 0.07113896 -0.034342945 -0.01962454 -0.10548191 0.022077609 0.044155218 -0.00981227
-0.050287884 -0.041702148 -0.114067644 0.01594494 -0.06868589 -0.013491872 0.013491872 0.03924908
0.011038804 -0.10057577 0.029436812 0.04906135 -0.02575721 0.05151442 -0.11038804 -0.082177766
-0.07849816 -0.018398007 -0.034342945 -0.044155218 0.023304142 0.050287884 -0.038022548 -0.1091615
-0.0036796015 0.013491872 -0.06377976 0.0024530676 0.01594494 -0.034342945 -0.06623282 0.046608284
0.023304142 0.0 -0.0024530676 0.034342945 -0.00981227 -0.08095123 -0.04906135 -0.052740954
0.00981227 0.03556948 -0.018398007 0.013491872 -0.052740954 -0.041702148 -0.08095123 -0.00981227
0.006132669 -0.017171472 -0.05519402 -0.06377976 -0.06868589 0.028210277 -0.020851074 -0.11529417
0.018398007 0.004906135 0.057647087 -0.014718406 -0.06868589 -0.023304142 -0.00981227 -0.09689617
0.034342945 -0.044155218 -0.06377976 0.018398007 -0.008585736 -0.028210277 -0.03924908 -0.022077609
-0.030663345 -0.089536965 0.02575721 -0.08585736 -0.07236549 0.00981227 -0.11284111 -0.013491872
-0.038022548 -0.03311641 -0.038022548 -0.017171472 -0.076045096 0.034342945 -0.083404295 0.017171472
-0.02575721 -0.044155218 -0.029436812 0.004906135 0.01962454 -0.06132669 -0.07359203 -0.03311641
0.053967487 -0.012265338 -0.00981227 -0.00981227 -0.076045096 -0.08463083 -0.094443105 -0.008585736
0.026983744 -0.004906135 -0.03311641 -0.046608284 0.03188988 0.044155218 -0.11652071 -0.0981227
-0.00981227 0.00981227 -0.11652071 -0.050287884 0.0012265338 -0.04906135 0.036796015 -0.00981227
-0.00981227 -0.036796015 -0.008585736 -0.06377976 -0.076045096 -0.0024530676 0.03311641 -0.040475614
0.03311641 -0.06623282 0.004906135 -0.07849816 -0.038022548 -0.006132669 -0.036796015 -0.057647087

tfl.pseudo_qconst3 i1 [64, 1, 1, 64]
00000000: 2850 eb4c 458f 64d2 044a 4604 5746 5650
00000010: 9310 5a5b 7fed 42e1 bb73 f393 d8db c64f
00000020: 14af e2e6 0f11 102e e0e9 0fe0 b64f 5332
00000030: a77c 4826 fb61 9f63 bb2a d6f7 bc04 31e7
00000040: 9833 6693 b129 4c05 e8b4 c037 f1c5 e71e
00000050: 26b2 6f64 fbb9 9a30 b281 f606 4807 5d5e
00000060: eb55 0c19 61e8 adc7 1d15 9b00 69f6 f725
00000070: dea8 416e b3d2 49f4 555c 2e06 693d e816
00000080: 5bdc e242 01dc 5fb4 d707 9db1 9f3f c3f8
00000090: 2db4 7fb4 1fef 9ec6 e161 145a 3e44 cbd4
000000a0: 3231 0810 1dce ddb8 a63d c137 e925 15be
000000b0: 2408 efdb 32dd b8ca d835 e7ed 0644 fbb6
000000c0: a8ba f6da b70f d3d0 555f ce42 2446 b42a
000000d0: 4b15 4464 af3d 07d4 e34b 3461 c147 ccc7
000000e0: 9655 48cf def7 48f6 b99b d7f5 858b 4003
000000f0: 9aba a4a8 7c8e a7cb 01be c656 7ff3 fad4
40 80 -21 76 69 -113 100 -46
4 74 70 4 87 70 86 80
-109 16 90 91 127 -19 66 -31
-69 115 -13 -109 -40 -37 -58 79
20 -81 -30 -26 15 17 16 46
-32 -23 15 -32 -74 79 83 50
-89 124 72 38 -5 97 -97 99
-69 42 -42 -9 -68 4 49 -25
-104 51 102 -109 -79 41 76 5
-24 -76 -64 55 -15 -59 -25 30
38 -78 111 100 -5 -71 -102 48
-78 -127 -10 6 72 7 93 94
-21 85 12 25 97 -24 -83 -57
29 21 -101 0 105 -10 -9 37
-34 -88 65 110 -77 -46 73 -12
85 92 46 6 105 61 -24 22
91 -36 -30 66 1 -36 95 -76
-41 7 -99 -79 -97 63 -61 -8
45 -76 127 -76 31 -17 -98 -58
-31 97 20 90 62 68 -53 -44
50 49 8 16 29 -50 -35 -72
-90 61 -63 55 -23 37 21 -66
36 8 -17 -37 50 -35 -72 -54
-40 53 -25 -19 6 68 -5 -74
-88 -70 -10 -38 -73 15 -45 -48
85 95 -50 66 36 70 -76 42
75 21 68 100 -81 61 7 -44
-29 75 52 97 -63 71 -52 -57
-106 85 72 -49 -34 -9 72 -10
-71 -101 -41 -11 -123 -117 64 3
-102 -70 -92 -88 124 -114 -89 -53
1 -66 -58 86 127 -13 -6 -44

tfl.pseudo_qconst5 i1 [1, 23, 1, 64]
00000000: 2f54 13ab 8d81 05cb 7f2d 817c 2010 4aff
00000010: 5e34 1828 012e ec38 485b d781 947f aafd
00000020: 0a9f 0138 ba73 a708 fb81 fdee ec26 2018
00000030: 9567 e301 e181 2237 4e68 2aca 150d 38ef
00000040: 0517 1cd4 c4e1 47f3 a8d9 9f2d d7de 2c09
00000050: f308 0a29 3df8 771f bc7c ea00 fa30 3cff
00000060: 08e0 3909 a6ea b649 ef84 851e 53dc 98a1
00000070: f2dc 5ed0 b79e 8117 aa7f cffe 7fd7 2cff
00000080: 19cc 3227 b611 45f2 98f8 c7fe c6d5 b52f
00000090: f529 f853 5a3c 1a51 96e6 f63d 3ae9 a3db
000000a0: e8cb 0cf7 99db a81d 242e 513b 7f1c 09fa
000000b0: a106 6fbc a5cb bf2b cbfe 9e0f 2102 7f20
000000c0: 5023 c342 db14 2ebf a408 e0ef bdf6 7fcb
000000d0: 50d8 0330 5109 d15b a1c5 e93c c00c cd2a
000000e0: 2443 150f 81d3 ae21 d3e7 c8e2 0a27 2943
000000f0: 8c24 00cd 4494 1ef0 bbf9 81f7 6ff7 6c26
47 84 19 -85 -115 -127 5 -53
127 45 -127 124 32 16 74 -1
94 52 24 40 1 46 -20 56
72 91 -41 -127 -108 127 -86 -3
10 -97 1 56 -70 115 -89 8
-5 -127 -3 -18 -20 38 32 24
-107 103 -29 1 -31 -127 34 55
78 104 42 -54 21 13 56 -17
5 23 28 -44 -60 -31 71 -13
-88 -39 -97 45 -41 -34 44 9
-13 8 10 41 61 -8 119 31
-68 124 -22 0 -6 48 60 -1
8 -32 57 9 -90 -22 -74 73
-17 -124 -123 30 83 -36 -104 -95
-14 -36 94 -48 -73 -98 -127 23
-86 127 -49 -2 127 -41 44 -1
25 -52 50 39 -74 17 69 -14
-104 -8 -57 -2 -58 -43 -75 47
-11 41 -8 83 90 60 26 81
-106 -26 -10 61 58 -23 -93 -37
-24 -53 12 -9 -103 -37 -88 29
36 46 81 59 127 28 9 -6
-95 6 111 -68 -91 -53 -65 43
-53 -2 -98 15 33 2 127 32
80 35 -61 66 -37 20 46 -65
-92 8 -32 -17 -67 -10 127 -53
80 -40 3 48 81 9 -47 91
-95 -59 -23 60 -64 12 -51 42
36 67 21 15 -127 -45 -82 33
-45 -25 -56 -30 10 39 41 67
-116 36 0 -51 68 -108 30 -16
-69 -7 -127 -9 111 -9 108 38

tfl.pseudo_qconst7 i1 [64, 1, 1, 64]
00000000: a285 3f4d 4538 cba9 28eb 0475 bafd 3c6b
00000010: d5e8 e725 e3be e9d4 d0f6 abbd c107 460e
00000020: 5fb3 a630 2b57 b7e3 7f47 42be 6199 f191
00000030: 0fc2 5f18 da2b 7537 0e15 8190 5330 0548
00000040: c0e5 fa42 f5cc cc3d 2835 00e5 f706 fb16
00000050: fe64 ed00 dac5 cde0 0a3e c33d 309d 52ed
00000060: 81bc d114 b9e7 0743 0351 9b0a 414c 99b1
00000070: bfd0 35f0 eb3d ab2e aa3d 38f6 f7e1 02cf
00000080: d4e9 240a 25bd df65 66ea e7e2 9a45 ac1c
00000090: f154 062c bd95 e0a3 0996 a440 cdd7 67eb
000000a0: 2624 b7a3 277f 3ec8 e4ed 2f2b ca0b fb19
000000b0: cdb0 d4e2 c4e0 3dd2 af59 261d f4c1 0c2f
000000c0: 6808 672d f2b3 3d29 24cc 9f6f 1f19 9e20
000000d0: 9e30 52f2 7037 9fd2 0e39 c1d9 273d 021d
000000e0: a19c ecda c233 3648 b2e0 f0e1 3bf1 0d81
000000f0: bdf5 64ef e9aa 196d 4bdc fd04 1eed 4915
-94 -123 63 77 69 56 -53 -87
40 -21 4 117 -70 -3 60 107
-43 -24 -25 37 -29 -66 -23 -44
-48 -10 -85 -67 -63 7 70 14
95 -77 -90 48 43 87 -73 -29
127 71 66 -66 97 -103 -15 -111
15 -62 95 24 -38 43 117 55
14 21 -127 -112 83 48 5 72
-64 -27 -6 66 -11 -52 -52 61
40 53 0 -27 -9 6 -5 22
-2 100 -19 0 -38 -59 -51 -32
10 62 -61 61 48 -99 82 -19
-127 -68 -47 20 -71 -25 7 67
3 81 -101 10 65 76 -103 -79
-65 -48 53 -16 -21 61 -85 46
-86 61 56 -10 -9 -31 2 -49
-44 -23 36 10 37 -67 -33 101
102 -22 -25 -30 -102 69 -84 28
-15 84 6 44 -67 -107 -32 -93
9 -106 -92 64 -51 -41 103 -21
38 36 -73 -93 39 127 62 -56
-28 -19 47 43 -54 11 -5 25
-51 -80 -44 -30 -60 -32 61 -46
-81 89 38 29 -12 -63 12 47
104 8 103 45 -14 -77 61 41
36 -52 -97 111 31 25 -98 32
-98 48 82 -14 112 55 -97 -46
14 57 -63 -39 39 61 2 29
-95 -100 -20 -38 -62 51 54 72
-78 -32 -16 -31 59 -15 13 -127
-67 -11 100 -17 -23 -86 25 109
75 -36 -3 4 30 -19 73 21

tfl.pseudo_qconst9 i1 [1, 15, 1, 32]
00000000: f7eb 37fe c463 00c5 8d53 ac0f 230e 3165
00000010: a525 71cf 3134 0d81 3def d627 0231 817e
00000020: 2c59 b6ba eb56 0fc5 81da 1999 07cc 822b
00000030: 8164 1209 7043 b5a4 c2e4 e019 280c ee26
00000040: eff7 a7e4 be7f 08e0 38bf b97b badd d232
00000050: 9eca 5bac aa7f 7f18 17a0 e2af abe6 1ee1
00000060: e2f5 0648 1652 cf18 fdef 8197 9407 1881
00000070: b9bb 72c0 9a3a 70b5 f2c8 0273 d5e8 a8b6
00000080: d0b2 c83c 9818 0c7f bc5d 94fa b3d8 c542
00000090: 1936 be34 01fc 3b26 3331 c963 4338 0539
000000a0: 2fbc 087f ed09 47e4 b24b d3ab 2ff1 4e33
000000b0: c7a2 0608 66e3 c05a 8bd3 18f0 75ee c82b
000000c0: 1022 c61f 3799 002b 2935 f0b6 bad0 e7da
000000d0: 247d 69ac ee45 1312 ea2c b8e2 7f7f 0e09
000000e0: c04a dbd1 0d04 c43c 10fe 17cc 4425 4bb7
000000f0: 442a 3bb5 4926 f509 d23e 1181 0b05 cb51
-9 -21 55 -2 -60 99 0 -59
-115 83 -84 15 35 14 49 101
-91 37 113 -49 49 52 13 -127
61 -17 -42 39 2 49 -127 126
44 89 -74 -70 -21 86 15 -59
-127 -38 25 -103 7 -52 -126 43
-127 100 18 9 112 67 -75 -92
-62 -28 -32 25 40 12 -18 38
-17 -9 -89 -28 -66 127 8 -32
56 -65 -71 123 -70 -35 -46 50
-98 -54 91 -84 -86 127 127 24
23 -96 -30 -81 -85 -26 30 -31
-30 -11 6 72 22 82 -49 24
-3 -17 -127 -105 -108 7 24 -127
-71 -69 114 -64 -102 58 112 -75
-14 -56 2 115 -43 -24 -88 -74
-48 -78 -56 60 -104 24 12 127
-68 93 -108 -6 -77 -40 -59 66
25 54 -66 52 1 -4 59 38
51 49 -55 99 67 56 5 57
47 -68 8 127 -19 9 71 -28
-78 75 -45 -85 47 -15 78 51
-57 -94 6 8 102 -29 -64 90
-117 -45 24 -16 117 -18 -56 43
16 34 -58 31 55 -103 0 43
41 53 -16 -74 -70 -48 -25 -38
36 125 105 -84 -18 69 19 18
-22 44 -72 -30 127 127 14 9
-64 74 -37 -47 13 4 -60 60
16 -2 23 -52 68 37 75 -73
68 42 59 -75 73 38 -11 9
-46 62 17 -127 11 5 -53 81

tfl.pseudo_qconst11 i1 [1, 9, 1, 32]
00000000: d97f be59 5efd bf7f a9df c9f9 c4f8 b827
00000010: be06 834e 431c 819d e481 8ff7 e4db 7ea3
00000020: 6339 589f 1c19 e52c 1615 15e6 41d6 84c2
00000030: 4de3 389c 513f 5b7f 4c49 efc0 4142 35f4
00000040: 6c50 27df b00c 1b33 03ad 7f91 3824 a881
00000050: a3b7 174e 367f 5104 a02f ef81 c114 bfbc
00000060: 3060 ed8c 7fe9 4561 3dfa 7606 4d01 b4d1
00000070: f050 f337 ba69 a02c 1984 fc25 d282 62ba
00000080: ff29 f781 0c40 bf1d b454 f915 8101 3d8d
00000090: b711 e37f 3419 472b 8da4 7f1b 5a81 5281
000000a0: 7fc1 b3d8 77dc c30d 7fe1 9d81 14cf e10a
000000b0: 1c1b f4e4 815e ac2c 9f37 6196 21bf 9c7d
000000c0: 5fea 3094 10d4 818d 5030 9c9b 3a9c 9369
000000d0: 7f7f a708 a9b1 6b23 d941 6f4d 7f5a 141f
000000e0: b5f8 eefe bc54 32dc 6ecb 3816 f881 7f29
000000f0: 14f9 bc2e 318a 9e0e a2ba 28f2 1bf6 a2ed
-39 127 -66 89 94 -3 -65 127
-87 -33 -55 -7 -60 -8 -72 39
-66 6 -125 78 67 28 -127 -99
-28 -127 -113 -9 -28 -37 126 -93
99 57 88 -97 28 25 -27 44
22 21 21 -26 65 -42 -124 -62
77 -29 56 -100 81 63 91 127
76 73 -17 -64 65 66 53 -12
108 80 39 -33 -80 12 27 51
3 -83 127 -111 56 36 -88 -127
-93 -73 23 78 54 127 81 4
-96 47 -17 -127 -63 20 -65 -68
48 96 -19 -116 127 -23 69 97
61 -6 118 6 77 1 -76 -47
-16 80 -13 55 -70 105 -96 44
25 -124 -4 37 -46 -126 98 -70
-1 41 -9 -127 12 64 -65 29
-76 84 -7 21 -127 1 61 -115
-73 17 -29 127 52 25 71 43
-115 -92 127 27 90 -127 82 -127
127 -63 -77 -40 119 -36 -61 13
127 -31 -99 -127 20 -49 -31 10
28 27 -12 -28 -127 94 -84 44
-97 55 97 -106 33 -65 -100 125
95 -22 48 -108 16 -44 -127 -115
80 48 -100 -101 58 -100 -109 105
127 127 -89 8 -87 -79 107 35
-39 65 111 77 127 90 20 31
-75 -8 -18 -2 -68 84 50 -36
110 -53 56 22 -8 -127 127 41
20 -7 -68 46 49 -118 -98 14
-94 -70 40 -14 27 -10 -94 -19

tfl.pseudo_qconst13 i1 [64, 1, 1, 64]
00000000: 0e9e 503a 30d8 8f0d 0aa7 f2a7 b56f d8ea
00000010: 7f29 a09e 19e9 c714 0612 0947 ac31 11b8
00000020: 433a b890 3173 e1ae 34ad 0fec e0b0 969c
00000030: c5f8 441f 3016 e624 4e53 255e 4523 02d0
00000040: b58c bafd f09e 4abb 3d5f 57a2 7f55 0dff
00000050: a144 f00e 3c5f 215b a4e4 0ea1 c7c9 2eb7
00000060: 4b17 27f8 df02 2e5d 411a d1b6 1400 1017
00000070: a822 71d1 0631 c81c c8dd 3420 2931 2131
00000080: cab2 b8c4 a5cb 931a 5328 c17f e2a5 b7aa
00000090: c99e 0b2f e1c9 00db 9804 3041 c6bd 9e69
000000a0: c034 cfa6 f621 a045 0cfc 7e42 86a7 ee06
000000b0: ccb4 ba54 dae8 1bea 3ea8 2347 cf9c a967
000000c0: 89e5 3c7f 4629 72ed 3a43 fabc d206 a7ca
000000d0: 074b d736 d343 128d f1e9 d91f 015e 9f56
000000e0: 40ef 5ef5 ebee 9b1b bf2b 08b0 4d35 f1b5
000000f0: 3739 d711 c23f f44e bcfb cfec cb1c 9fe8
14 -98 80 58 48 -40 -113 13
10 -89 -14 -89 -75 111 -40 -22
127 41 -96 -98 25 -23 -57 20
6 18 9 71 -84 49 17 -72
67 58 -72 -112 49 115 -31 -82
52 -83 15 -20 -32 -80 -106 -100
-59 -8 68 31 48 22 -26 36
78 83 37 94 69 35 2 -48
-75 -116 -70 -3 -16 -98 74 -69
61 95 87 -94 127 85 13 -1
-95 68 -16 14 60 95 33 91
-92 -28 14 -95 -57 -55 46 -73
75 23 39 -8 -33 2 46 93
65 26 -47 -74 20 0 16 23
-88 34 113 -47 6 49 -56 28
-56 -35 52 32 41 49 33 49
-54 -78 -72 -60 -91 -53 -109 26
83 40 -63 127 -30 -91 -73 -86
-55 -98 11 47 -31 -55 0 -37
-104 4 48 65 -58 -67 -98 105
-64 52 -49 -90 -10 33 -96 69
12 -4 126 66 -122 -89 -18 6
-52 -76 -70 84 -38 -24 27 -22
62 -88 35 71 -49 -100 -87 103
-119 -27 60 127 70 41 114 -19
58 67 -6 -68 -46 6 -89 -54
7 75 -41 54 -45 67 18 -115
-15 -23 -39 31 1 94 -97 86
64 -17 94 -11 -21 -18 -101 27
-65 43 8 -80 77 53 -15 -75
55 57 -41 17 -62 63 -12 78
-68 -5 -49 -20 -53 28 -97 -24

tfl.pseudo_qconst15 i1 [1, 11, 1, 32]
00000000: 1c15 8681 812a bd06 9d96 7f8e 00d3 9462
00000010: c5ad 3b95 b748 8191 0efd a862 d772 8147
00000020: 0803 81f4 faf5 ea5c b52e 63da d90a 4a06
00000030: 48b0 0b36 ec12 bc25 98dc e00a def1 ac02
00000040: a7c0 5c1e adfd 4e5f 0864 ebce 188e 602a
00000050: db7f b92e 8191 efe5 5395 19e8 3dca ecc4
00000060: 401c 943d 7b81 bbe2 f0ad 5ae1 c8ab cb98
00000070: 22e8 a32b 649b f1f3 9ae9 bf18 2f81 59dc
00000080: 1a2e 28f7 9710 9f1d 0b81 6725 3026 0ddc
00000090: 6413 acc9 537f 9037 f69e c149 c827 153b
000000a0: 2bba 6456 9766 7fa6 5f04 f381 5581 e34f
000000b0: d7c5 44ae 2be2 0aca e27e 81e9 df35 db7f
000000c0: 4b15 bdb9 6311 5ded 754b c994 7f8b e834
000000d0: cf73 05a5 3225 1abc 8181 c607 d28e df42
000000e0: be7f 3938 6273 3be3 d812 2c36 6347 e67f
000000f0: 1f48 c5cd ba86 f59a fc22 5181 4efa 314d
28 21 -122 -127 -127 42 -67 6
-99 -106 127 -114 0 -45 -108 98
-59 -83 59 -107 -73 72 -127 -111
14 -3 -88 98 -41 114 -127 71
8 3 -127 -12 -6 -11 -22 92
-75 46 99 -38 -39 10 74 6
72 -80 11 54 -20 18 -68 37
-104 -36 -32 10 -34 -15 -84 2
-89 -64 92 30 -83 -3 78 95
8 100 -21 -50 24 -114 96 42
-37 127 -71 46 -127 -111 -17 -27
83 -107 25 -24 61 -54 -20 -60
64 28 -108 61 123 -127 -69 -30
-16 -83 90 -31 -56 -85 -53 -104
34 -24 -93 43 100 -101 -15 -13
-102 -23 -65 24 47 -127 89 -36
26 46 40 -9 -105 16 -97 29
11 -127 103 37 48 38 13 -36
100 19 -84 -55 83 127 -112 55
-10 -98 -63 73 -56 39 21 59
43 -70 100 86 -105 102 127 -90
95 4 -13 -127 85 -127 -29 79
-41 -59 68 -82 43 -30 10 -54
-30 126 -127 -23 -33 53 -37 127
75 21 -67 -71 99 17 93 -19
117 75 -55 -108 127 -117 -24 52
-49 115 5 -91 50 37 26 -68
-127 -127 -58 7 -46 -114 -33 66
-66 127 57 56 98 115 59 -29
-40 18 44 54 99 71 -26 127
31 72 -59 -51 -70 -122 -11 -102
-4 34 81 -127 78 -6 49 77

tfl.pseudo_qconst17 i1 [1, 7, 1, 32]
00000000: 2232 7638 d91a b7b2 bd81 f4cf c3ed ab9b
00000010: 3536 bae4 34d5 f37f 371d a201 e8cc abc2
00000020: cb34 7f52 1127 5b41 9c90 97c3 815e 4481
00000030: 7e36 7fe7 aee5 7f6d cddf db8d 6afb bfcf
00000040: f652 007f ec8c e213 8c6f 8151 59dc e95b
00000050: 7f81 3158 76f6 3812 8b14 267f bd6f b95d
00000060: 7fef 75a2 3f81 4a81 44c3 8777 794a 5182
00000070: 6fc0 d87f 342f a433 42d4 de3f ae47 386b
00000080: 3011 42b6 164b 444f 7fc3 a9e1 2e25 ada6
00000090: 8559 ee3d 7f08 8c6e dbe6 04ea 2f81 5834
000000a0: 00c3 1262 e7a6 04bb 8cc0 24e7 e581 8a13
000000b0: 4b0b 27dd 547f 8d8e 817f 5b28 7fb1 7f81
000000c0: 1281 e1f5 81f3 814e d866 107f 75b8 8183
000000d0: 8108 a8d6 9d60 5193 5a6d 7f13 70e7 4b4c
34 50 118 56 -39 26 -73 -78
-67 -127 -12 -49 -61 -19 -85 -101
53 54 -70 -28 52 -43 -13 127
55 29 -94 1 -24 -52 -85 -62
-53 52 127 82 17 39 91 65
-100 -112 -105 -61 -127 94 68 -127
126 54 127 -25 -82 -27 127 109
-51 -33 -37 -115 106 -5 -65 -49
-10 82 0 127 -20 -116 -30 19
-116 111 -127 81 89 -36 -23 91
127 -127 49 88 118 -10 56 18
-117 20 38 127 -67 111 -71 93
127 -17 117 -94 63 -127 74 -127
68 -61 -121 119 121 74 81 -126
111 -64 -40 127 52 47 -92 51
66 -44 -34 63 -82 71 56 107
48 17 66 -74 22 75 68 79
127 -61 -87 -31 46 37 -83 -90
-123 89 -18 61 127 8 -116 110
-37 -26 4 -22 47 -127 88 52
0 -61 18 98 -25 -90 4 -69
-116 -64 36 -25 -27 -127 -118 19
75 11 39 -35 84 127 -115 -114
-127 127 91 40 127 -79 127 -127
18 -127 -31 -11 -127 -13 -127 78
-40 102 16 127 117 -72 -127 -125
-127 8 -88 -42 -99 96 81 -109
90 109 127 19 112 -25 75 76

tfl.pseudo_qconst19 i1 [64, 1, 1, 32]
00000000: 2ccc aa4f 1a35 2156 c42f f81a 8131 dcc1
00000010: 4970 28ca 5d72 2dc0 c31f d3b2 a869 2a37
00000020: 1b81 c7d9 a767 2f0c b9df 263e d63d 2414
00000030: c443 1523 1f47 bc22 6804 1e40 28ff be25
00000040: a7a9 3d81 e105 efd0 aa49 a1c1 64b8 7afc
00000050: d1b5 d1f7 20f1 8636 1807 0b33 2d29 3134
00000060: aaa9 e3b2 212b 0b74 e345 d2bd cfda 7fb5
00000070: 91da 4d2a 082c 3d03 bdf7 7992 01a9 bd14
00000080: b547 c94c 1a44 923a 9b89 025d f6dc f903
00000090: cc4e 1947 f51e 1f08 1a44 4181 0b97 27a4
000000a0: f225 f036 0fed 6192 be81 66d8 dbf0 d6e8
000000b0: 8f70 5ae4 cd52 38e3 381c 6b2b c731 45c7
000000c0: b5e5 0c10 d18b 8ee4 0c15 3ffc 3d20 3a7f
000000d0: 75d2 0b6e 0389 baa6 f658 b834 4e04 b6cf
000000e0: 5f5c a36a 64a0 2504 72ff 7c81 6dff c695
000000f0: 7f58 089a d8f8 bc8b 7671 ba36 0ae5 ce6b
44 -52 -86 79 26 53 33 86
-60 47 -8 26 -127 49 -36 -63
73 112 40 -54 93 114 45 -64
-61 31 -45 -78 -88 105 42 55
27 -127 -57 -39 -89 103 47 12
-71 -33 38 62 -42 61 36 20
-60 67 21 35 31 71 -68 34
104 4 30 64 40 -1 -66 37
-89 -87 61 -127 -31 5 -17 -48
-86 73 -95 -63 100 -72 122 -4
-47 -75 -47 -9 32 -15 -122 54
24 7 11 51 45 41 49 52
-86 -87 -29 -78 33 43 11 116
-29 69 -46 -67 -49 -38 127 -75
-111 -38 77 42 8 44 61 3
-67 -9 121 -110 1 -87 -67 20
-75 71 -55 76 26 68 -110 58
-101 -119 2 93 -10 -36 -7 3
-52 78 25 71 -11 30 31 8
26 68 65 -127 11 -105 39 -92
-14 37 -16 54 15 -19 97 -110
-66 -127 102 -40 -37 -16 -42 -24
-113 112 90 -28 -51 82 56 -29
56 28 107 43 -57 49 69 -57
-75 -27 12 16 -47 -117 -114 -28
12 21 63 -4 61 32 58 127
117 -46 11 110 3 -119 -70 -90
-10 88 -72 52 78 4 -74 -49
95 92 -93 106 100 -96 37 4
114 -1 124 -127 109 -1 -58 -107
127 88 8 -102 -40 -8 -68 -117
118 113 -70 54 10 -27 -50 107

tfl.pseudo_qconst21 i1 [1, 5, 1, 32]
00000000: ca5c bb40 7381 a84c c232 7f81 7f4f af81
00000010: d76e 446c de18 137f f2ce 5bda 37b5 e23e
00000020: 5094 097f c3e1 9306 5ec1 b900 64c9 7fa3
00000030: 7d40 448f 7f2c 76db 7f81 75eb 7b37 8117
00000040: 9d69 c705 fb12 93e0 17df d5d8 b0b2 cbd4
00000050: 8184 7f9e a52b 7f40 ef96 5a7f 7f31 de79
00000060: 817f f740 7fb5 8181 7c7f d773 fe81 fd8b
00000070: e281 a1eb a085 0712 b535 7fd6 879d 777f
00000080: f92c 8198 56d5 cf60 7fd9 c931 22df bc4e
00000090: 7111 af81 6e7f fbc4 d093 e447 3081 5598
-54 92 -69 64 115 -127 -88 76
-62 50 127 -127 127 79 -81 -127
-41 110 68 108 -34 24 19 127
-14 -50 91 -38 55 -75 -30 62
80 -108 9 127 -61 -31 -109 6
94 -63 -71 0 100 -55 127 -93
125 64 68 -113 127 44 118 -37
127 -127 117 -21 123 55 -127 23
-99 105 -57 5 -5 18 -109 -32
23 -33 -43 -40 -80 -78 -53 -44
-127 -124 127 -98 -91 43 127 64
-17 -106 90 127 127 49 -34 121
-127 127 -9 64 127 -75 -127 -127
124 127 -41 115 -2 -127 -3 -117
-30 -127 -95 -21 -96 -123 7 18
-75 53 127 -42 -121 -99 119 127
-7 44 -127 -104 86 -43 -49 96
127 -39 -55 49 34 -33 -68 78
113 17 -81 -127 110 127 -5 -60
-48 -109 -28 71 48 -127 85 -104

tfl.pseudo_qconst23 i1 [32, 5, 1, 40]
00000000: 6ebc c825 0ffd dfe9 f43c 47bd d5fa fc23
00000010: bf41 cf1f a60c fd00 b6f4 c534 16cd 4956
00000020: 4d03 120d 2dc0 0455 240c e830 9e59 f44c
00000030: b8d4 4819 b8bb 2294 062c ba23 d9f2 4d47
00000040: 2211 10b7 5f22 4abf ded3 f62c 11fd 0f35
00000050: 65d9 490e d00b e14c 0b2e 1ded a8bd 2ed6
00000060: e3e5 c9ca cdc9 28b7 fb2e b3cb 4004 3e2b
00000070: 53e7 1b12 e3ae 3b19 501a dd4c 496f e833
00000080: 0dfe f081 f6a2 ef0a 12b8 c717 33cb 42de
00000090: 3818 e10e f6eb 9eef 2d17 4cfa 2ef4 15f6
000000a0: 39c3 42fd c239 2eec ed06 ec16 ace4 294c
000000b0: 31c1 f543 e02a f6d1 9194 0ddb cca3 1dc0
000000c0: d29c 2022 95bf b891 2ec8 f1b6 c1da cc03
000000d0: ce11 fa05 f1f4 47a8 d509 f0fb 17b7 10aa
000000e0: df13 37e8 d749 fc19 0a66 2913 5ea3 2ad4
000000f0: 7302 11cc 27a6 56ea 16b3 eaf3 3afe 1330
110 -68 -56 37 15 -3 -33 -23
-12 60 71 -67 -43 -6 -4 35
-65 65 -49 31 -90 12 -3 0
-74 -12 -59 52 22 -51 73 86
77 3 18 13 45 -64 4 85
36 12 -24 48 -98 89 -12 76
-72 -44 72 25 -72 -69 34 -108
6 44 -70 35 -39 -14 77 71
34 17 16 -73 95 34 74 -65
-34 -45 -10 44 17 -3 15 53
101 -39 73 14 -48 11 -31 76
11 46 29 -19 -88 -67 46 -42
-29 -27 -55 -54 -51 -55 40 -73
-5 46 -77 -53 64 4 62 43
83 -25 27 18 -29 -82 59 25
80 26 -35 76 73 111 -24 51
13 -2 -16 -127 -10 -94 -17 10
18 -72 -57 23 51 -53 66 -34
56 24 -31 14 -10 -21 -98 -17
45 23 76 -6 46 -12 21 -10
57 -61 66 -3 -62 57 46 -20
-19 6 -20 22 -84 -28 41 76
49 -63 -11 67 -32 42 -10 -47
-111 -108 13 -37 -52 -93 29 -64
-46 -100 32 34 -107 -65 -72 -111
46 -56 -15 -74 -63 -38 -52 3
-50 17 -6 5 -15 -12 71 -88
-43 9 -16 -5 23 -73 16 -86
-33 19 55 -24 -41 73 -4 25
10 102 41 19 94 -93 42 -44
115 2 17 -52 39 -90 86 -22
22 -77 -22 -13 58 -2 19 48

tfl.pseudo_qconst24 i1 [1, 14, 1, 64] scale=0.039522704 zero_point=-128
00000000: 8080 8080 8080 8080 8080 8080 8080 8080
00000010: 8080 8080 8080 8080 8080 8080 8080 8080
00000020: 8080 8080 8080 8080 8080 8080 8080 8080
00000030: 8080 8080 8080 8080 8080 8080 8080 8080
00000040: 8080 8080 8080 8080 8080 8080 8080 8080
00000050: 8080 8080 8080 8080 8080 8080 8080 8080
00000060: 8080 8080 8080 8080 8080 8080 8080 8080
00000070: 8080 8080 8080 8080 8080 8080 8080 8080
00000080: 8080 8080 8080 8080 8080 8080 8080 8080
00000090: 8080 8080 8080 8080 8080 8080 8080 8080
000000a0: 8080 8080 8080 8080 8080 8080 8080 8080
000000b0: 8080 8080 8080 8080 8080 8080 8080 8080
000000c0: 8080 8080 8080 8080 8080 8080 8080 8080
000000d0: 8080 8080 8080 8080 8080 8080 8080 8080
000000e0: 8080 8080 8080 8080 8080 8080 8080 8080
000000f0: 8080 8080 8080 8080 8080 8080 8080 8080
0.0 0.0 0.0 0.0 0.0 0.0 0.0 0.0
0.0 0.0 0.0 0.0 0.0 0.0 0.0 0.0
0.0 0.0 0.0 0.0 0.0 0.0 0.0 0.0
0.0 0.0 0.0 0.0 0.0 0.0 0.0 0.0
0.0 0.0 0.0 0.0 0.0 0.0 0.0 0.0
0.0 0.0 0.0 0.0 0.0 0.0 0.0 0.0
0.0 0.0 0.0 0.0 0.0 0.0 0.0 0.0
0.0 0.0 0.0 0.0 0.0 0.0 0.0 0.0
0.0 0.0 0.0 0.0 0.0 0.0 0.0 0.0
0.0 0.0 0.0 0.0 0.0 0.0 0.0 0.0
0.0 0.0 0.0 0.0 0.0 0.0 0.0 0.0
0.0 0.0 0.0 0.0 0.0 0.0 0.0 0.0
0.0 0.0 0.0 0.0 0.0 0.0 0.0 0.0
0.0 0.0 0.0 0.0 0.0 0.0 0.0 0.0
0.0 0.0 0.0 0.0 0.0 0.0 0.0 0.0
0.0 0.0 0.0 0.0 0.0 0.0 0.0 0.0
0.0 0.0 0.0 0.0 0.0 0.0 0.0 0.0
0.0 0.0 0.0 0.0 0.0 0.0 0.0 0.0
0.0 0.0 0.0 0.0 0.0 0.0 0.0 0.0
0.0 0.0 0.0 0.0 0.0 0.0 0.0 0.0
0.0 0.0 0.0 0.0 0.0 0.0 0.0 0.0
0.0 0.0 0.0 0.0 0.0 0.0 0.0 0.0
0.0 0.0 0.0 0.0 0.0 0.0 0.0 0.0
0.0 0.0 0.0 0.0 0.0 0.0 0.0 0.0
0.0 0.0 0.0 0.0 0.0 0.0 0.0 0.0
0.0 0.0 0.0 0.0 0.0 0.0 0.0 0.0
0.0 0.0 0.0 0.0 0.0 0.0 0.0 0.0
0.0 0.0 0.0 0.0 0.0 0.0 0.0 0.0
0.0 0.0 0.0 0.0 0.0 0.0 0.0 0.0
0.0 0.0 0.0 0.0 0.0 0.0 0.0 0.0
0.0 0.0 0.0 0.0 0.0 0.0 0.0 0.0
0.0 0.0 0.0 0.0 0.0 0.0 0.0 0.0

tfl.pseudo_qconst25 i1 [1, 10, 1, 64] scale=0.030885987 zero_point=-128
00000000: 8080 8080 8080 8080 8080 8080 8080 8080
00000010: 8080 8080 8080 8080 8080 8080 8080 8080
00000020: 8080 8080 8080 8080 8080 8080 8080 8080
00000030: 8080 8080 8080 8080 8080 8080 8080 8080
00000040: 8080 8080 8080 8080 8080 8080 8080 8080
00000050: 8080 8080 8080 8080 8080 8080 8080 8080
00000060: 8080 8080 8080 8080 8080 8080 8080 8080
00000070: 8080 8080 8080 8080 8080 8080 8080 8080
00000080: 8080 8080 8080 8080 8080 8080 8080 8080
00000090: 8080 8080 8080 8080 8080 8080 8080 8080
000000a0: 8080 8080 8080 8080 8080 8080 8080 8080
000000b0: 8080 8080 8080 8080 8080 8080 8080 8080
000000c0: 8080 8080 8080 8080 8080 8080 8080 8080
000000d0: 8080 8080 8080 8080 8080 8080 8080 8080
000000e0: 8080 8080 8080 8080 8080 8080 8080 8080
000000f0: 8080 8080 8080 8080 8080 8080 8080 8080
0.0 0.0 0.0 0.0 0.0 0.0 0.0 0.0
0.0 0.0 0.0 0.0 0.0 0.0 0.0 0.0
0.0 0.0 0.0 0.0 0.0 0.0 0.0 0.0
0.0 0.0 0.0 0.0 0.0 0.0 0.0 0.0
0.0 0.0 0.0 0.0 0.0 0.0 0.0 0.0
0.0 0.0 0.0 0.0 0.0 0.0 0.0 0.0
0.0 0.0 0.0 0.0 0.0 0.0 0.0 0.0
0.0 0.0 0.0 0.0 0.0 0.0 0.0 0.0
0.0 0.0 0.0 0.0 0.0 0.0 0.0 0.0
0.0 0.0 0.0 0.0 0.0 0.0 0.0 0.0
0.0 0.0 0.0 0.0 0.0 0.0 0.0 0.0
0.0 0.0 0.0 0.0 0.0 0.0 0.0 0.0
0.0 0.0 0.0 0.0 0.0 0.0 0.0 0.0
0.0 0.0 0.0 0.0 0.0 0.0 0.0 0.0
0.0 0.0 0.0 0.0 0.0 0.0 0.0 0.0
0.0 0.0 0.0 0.0 0.0 0.0 0.0 0.0
0.0 0.0 0.0 0.0 0.0 0.0 0.0 0.0
0.0 0.0 0.0 0.0 0.0 0.0 0.0 0.0
0.0 0.0 0.0 0.0 0.0 0.0 0.0 0.0
0.0 0.0 0.0 0.0 0.0 0.0 0.0 0.0
0.0 0.0 0.0 0.0 0.0 0.0 0.0 0.0
0.0 0.0 0.0 0.0 0.0 0.0 0.0 0.0
0.0 0.0 0.0 0.0 0.0 0.0 0.0 0.0
0.0 0.0 0.0 0.0 0.0 0.0 0.0 0.0
0.0 0.0 0.0 0.0 0.0 0.0 0.0 0.0
0.0 0.0 0.0 0.0 0.0 0.0 0.0 0.0
0.0 0.0 0.0 0.0 0.0 0.0 0.0 0.0
0.0 0.0 0.0 0.0 0.0 0.0 0.0 0.0
0.0 0.0 0.0 0.0 0.0 0.0 0.0 0.0
0.0 0.0 0.0 0.0 0.0 0.0 0.0 0.0
0.0 0.0 0.0 0.0 0.0 0.0 0.0 0.0
0.0 0.0 0.0 0.0 0.0 0.0 0.0 0.0

tfl.pseudo_qconst26 i1 [1, 4, 1, 32] scale=0.39395446 zero_point=-128
00000000: 8080 8080 8080 8080 8080 8080 8080 8080
00000010: 8080 8080 8080 8080 8080 8080 8080 8080
00000020: 8080 8080 8080 8080 8080 8080 8080 8080
00000030: 8080 8080 8080 8080 8080 8080 8080 8080
00000040: 8080 8080 8080 8080 8080 8080 8080 8080
00000050: 8080 8080 8080 8080 8080 8080 8080 8080
00000060: 8080 8080 8080 8080 8080 8080 8080 8080
00000070: 8080 8080 8080 8080 8080 8080 8080 8080
0.0 0.0 0.0 0.0 0.0 0.0 0.0 0.0
0.0 0.0 0.0 0.0 0.0 0.0 0.0 0.0
0.0 0.0 0.0 0.0 0.0 0.0 0.0 0.0
0.0 0.0 0.0 0.0 0.0 0.0 0.0 0.0
0.0 0.0 0.0 0.0 0.0 0.0 0.0 0.0
0.0 0.0 0.0 0.0 0.0 0.0 0.0 0.0
0.0 0.0 0.0 0.0 0.0 0.0 0.0 0.0
0.0 0.0 0.0 0.0 0.0 0.0 0.0 0.0
0.0 0.0 0.0 0.0 0.0 0.0 0.0 0.0
0.0 0.0 0.0 0.0 0.0 0.0 0.0 0.0
0.0 0.0 0.0 0.0 0.0 0.0 0.0 0.0
0.0 0.0 0.0 0.0 0.0 0.0 0.0 0.0
0.0 0.0 0.0 0.0 0.0 0.0 0.0 0.0
0.0 0.0 0.0 0.0 0.0 0.0 0.0 0.0
0.0 0.0 0.0 0.0 0.0 0.0 0.0 0.0
0.0 0.0 0.0 0.0 0.0 0.0 0.0 0.0

tfl.pseudo_qconst27 i1 [1, 2, 1, 40] scale=0.09957108 zero_point=-128
00000000: 8080 8080 8080 8080 8080 8080 8080 8080
00000010: 8080 8080 8080 8080 8080 8080 8080 8080
00000020: 8080 8080 8080 8080 8080 8080 8080 8080
00000030: 8080 8080 8080 8080 8080 8080 8080 8080
00000040: 8080 8080 8080 8080 8080 8080 8080 8080
0.0 0.0 0.0 0.0 0.0 0.0 0.0 0.0
0.0 0.0 0.0 0.0 0.0 0.0 0.0 0.0
0.0 0.0 0.0 0.0 0.0 0.0 0.0 0.0
0.0 0.0 0.0 0.0 0.0 0.0 0.0 0.0
0.0 0.0 0.0 0.0 0.0 0.0 0.0 0.0
0.0 0.0 0.0 0.0 0.0 0.0 0.0 0.0
0.0 0.0 0.0 0.0 0.0 0.0 0.0 0.0
0.0 0.0 0.0 0.0 0.0 0.0 0.0 0.0
0.0 0.0 0.0 0.0 0.0 0.0 0.0 0.0
0.0 0.0 0.0 0.0 0.0 0.0 0.0 0.0

tfl.pseudo_qconst28 i1 [1, 16, 1, 64] scale=0.030192906 zero_point=-128
00000000: 8080 8080 8080 8080 8080 8080 8080 8080
00000010: 8080 8080 8080 8080 8080 8080 8080 8080
00000020: 8080 8080 8080 8080 8080 8080 8080 8080
00000030: 8080 8080 8080 8080 8080 8080 8080 8080
00000040: 8080 8080 8080 8080 8080 8080 8080 8080
00000050: 8080 8080 8080 8080 8080 8080 8080 8080
00000060: 8080 8080 8080 8080 8080 8080 8080 8080
00000070: 8080 8080 8080 8080 8080 8080 8080 8080
00000080: 8080 8080 8080 8080 8080 8080 8080 8080
00000090: 8080 8080 8080 8080 8080 8080 8080 8080
000000a0: 8080 8080 8080 8080 8080 8080 8080 8080
000000b0: 8080 8080 8080 8080 8080 8080 8080 8080
000000c0: 8080 8080 8080 8080 8080 8080 8080 8080
000000d0: 8080 8080 8080 8080 8080 8080 8080 8080
000000e0: 8080 8080 8080 8080 8080 8080 8080 8080
000000f0: 8080 8080 8080 8080 8080 8080 8080 8080
0.0 0.0 0.0 0.0 0.0 0.0 0.0 0.0
0.0 0.0 0.0 0.0 0.0 0.0 0.0 0.0
0.0 0.0 0.0 0.0 0.0 0.0 0.0 0.0
0.0 0.0 0.0 0.0 0.0 0.0 0.0 0.0
0.0 0.0 0.0 0.0 0.0 0.0 0.0 0.0
0.0 0.0 0.0 0.0 0.0 0.0 0.0 0.0
0.0 0.0 0.0 0.0 0.0 0.0 0.0 0.0
0.0 0.0 0.0 0.0 0.0 0.0 0.0 0.0
0.0 0.0 0.0 0.0 0.0 0.0 0.0 0.0
0.0 0.0 0.0 0.0 0.0 0.0 0.0 0.0
0.0 0.0 0.0 0.0 0.0 0.0 0.0 0.0
0.0 0.0 0.0 0.0 0.0 0.0 0.0 0.0
0.0 0.0 0.0 0.0 0.0 0.0 0.0 0.0
0.0 0.0 0.0 0.0 0.0 0.0 0.0 0.0
0.0 0.0 0.0 0.0 0.0 0.0 0.0 0.0
0.0 0.0 0.0 0.0 0.0 0.0 0.0 0.0
0.0 0.0 0.0 0.0 0.0 0.0 0.0 0.0
0.0 0.0 0.0 0.0 0.0 0.0 0.0 0.0
0.0 0.0 0.0 0.0 0.0 0.0 0.0 0.0
0.0 0.0 0.0 0.0 0.0 0.0 0.0 0.0
0.0 0.0 0.0 0.0 0.0 0.0 0.0 0.0
0.0 0.0 0.0 0.0 0.0 0.0 0.0 0.0
0.0 0.0 0.0 0.0 0.0 0.0 0.0 0.0
0.0 0.0 0.0 0.0 0.0 0.0 0.0 0.0
0.0 0.0 0.0 0.0 0.0 0.0 0.0 0.0
0.0 0.0 0.0 0.0 0.0 0.0 0.0 0.0
0.0 0.0 0.0 0.0 0.0 0.0 0.0 0.0
0.0 0.0 0.0 0.0 0.0 0.0 0.0 0.0
0.0 0.0 0.0 0.0 0.0 0.0 0.0 0.0
0.0 0.0 0.0 0.0 0.0 0.0 0.0 0.0
0.0 0.0 0.0 0.0 0.0 0.0 0.0 0.0
0.0 0.0 0.0 0.0 0.0 0.0 0.0 0.0

tfl.pseudo_qconst29 i1 [1, 22, 1, 64] scale=0.03548535 zero_point=-128
00000000: 8080 8080 8080 8080 8080 8080 8080 8080
00000010: 8080 8080 8080 8080 8080 8080 8080 8080
00000020: 8080 8080 8080 8080 8080 8080 8080 8080
00000030: 8080 8080 8080 8080 8080 8080 8080 8080
00000040: 8080 8080 8080 8080 8080 8080 8080 8080
00000050: 8080 8080 8080 8080 8080 8080 8080 8080
00000060: 8080 8080 8080 8080 8080 8080 8080 8080
00000070: 8080 8080 8080 8080 8080 8080 8080 8080
00000080: 8080 8080 8080 8080 8080 8080 8080 8080
00000090: 8080 8080 8080 8080 8080 8080 8080 8080
000000a0: 8080 8080 8080 8080 8080 8080 8080 8080
000000b0: 8080 8080 8080 8080 8080 8080 8080 8080
000000c0: 8080 8080 8080 8080 8080 8080 8080 8080
000000d0: 8080 8080 8080 8080 8080 8080 8080 8080
000000e0: 8080 8080 8080 8080 8080 8080 8080 8080
000000f0: 8080 8080 8080 8080 8080 8080 8080 8080
0.0 0.0 0.0 0.0 0.0 0.0 0.0 0.0
0.0 0.0 0.0 0.0 0.0 0.0 0.0 0.0
0.0 0.0 0.0 0.0 0.0 0.0 0.0 0.0
0.0 0.0 0.0 0.0 0.0 0.0 0.0 0.0
0.0 0.0 0.0 0.0 0.0 0.0 0.0 0.0
0.0 0.0 0.0 0.0 0.0 0.0 0.0 0.0
0.0 0.0 0.0 0.0 0.0 0.0 0.0 0.0
0.0 0.0 0.0 0.0 0.0 0.0 0.0 0.0
0.0 0.0 0.0 0.0 0.0 0.0 0.0 0.0
0.0 0.0 0.0 0.0 0.0 0.0 0.0 0.0
0.0 0.0 0.0 0.0 0.0 0.0 0.0 0.0
0.0 0.0 0.0 0.0 0.0 0.0 0.0 0.0
0.0 0.0 0.0 0.0 0.0 0.0 0.0 0.0
0.0 0.0 0.0 0.0 0.0 0.0 0.0 0.0
0.0 0.0 0.0 0.0 0.0 0.0 0.0 0.0
0.0 0.0 0.0 0.0 0.0 0.0 0.0 0.0
0.0 0.0 0.0 0.0 0.0 0.0 0.0 0.0
0.0 0.0 0.0 0.0 0.0 0.0 0.0 0.0
0.0 0.0 0.0 0.0 0.0 0.0 0.0 0.0
0.0 0.0 0.0 0.0 0.0 0.0 0.0 0.0
0.0 0.0 0.0 0.0 0.0 0.0 0.0 0.0
0.0 0.0 0.0 0.0 0.0 0.0 0.0 0.0
0.0 0.0 0.0 0.0 0.0 0.0 0.0 0.0
0.0 0.0 0.0 0.0 0.0 0.0 0.0 0.0
0.0 0.0 0.0 0.0 0.0 0.0 0.0 0.0
0.0 0.0 0.0 0.0 0.0 0.0 0.0 0.0
0.0 0.0 0.0 0.0 0.0 0.0 0.0 0.0
0.0 0.0 0.0 0.0 0.0 0.0 0.0 0.0
0.0 0.0 0.0 0.0 0.0 0.0 0.0 0.0
0.0 0.0 0.0 0.0 0.0 0.0 0.0 0.0
0.0 0.0 0.0 0.0 0.0 0.0 0.0 0.0
0.0 0.0 0.0 0.0 0.0 0.0 0.0 0.0
