stream_state_internal_quant.tflite (tflite, 60768 bytes, 18 tensors)

tfl.pseudo_qconst1 i1 [1, 1088] scale=0.0010236385 zero_point=0
0.013307301 -0.092127465 0.017401855 0.060394675 0.045040093 0.058347397 -0.07882017 -0.06346559
-0.067560144 -0.09724566 -0.07882017 0.04299282 -0.006141831 0.015354577 -0.114647515 -0.08700927
-0.02149641 0.012283662 0.039921902 -0.04811101 -0.072678335 -0.095198385 -0.052205566 -0.02149641
-0.017401855 0.030709155 -0.029685518 0.004094554 0.016378216 0.046063732 -0.0010236385 -0.0010236385
0.0051181926 -0.08598564 -0.06244195 -0.02047277 0.012283662 -0.030709155 0.052205566 -0.09724566
-0.08700927 0.029685518 0.026614603 -0.0051181926 -0.012283662 -0.11976571 0.025590964 -0.039921902
0.04299282 -0.02763824 -0.06448923 0.018425494 0.06448923 0.024567325 -0.017401855 0.03480371
-0.10543477 -0.09008019 0.018425494 -0.10338749 -0.014330939 -0.015354577 0.051181927 -0.025590964
0.028661879 -0.07063106 -0.05527648 -0.03480371 0.03685099 -0.014330939 -0.019449132 -0.018425494
-0.08598564 -0.018425494 0.030709155 -0.038898263 0.024567325 0.06448923 -0.059371036 -0.06858378
-0.008189108 0.028661879 -0.10543477 -0.02047277 -0.09110383 0.0030709156 -0.079843804 -0.07882017
0.018425494 0.059371036 -0.030709155 -0.004094554 -0.088032916 -0.0051181926 -0.052205566 -0.10031658
-0.008189108 -0.11874207 -0.08086745 0.0030709156 0.019449132 -0.0051181926 0.0 0.011260023
-0.10338749 -0.030709155 -0.032756433 -0.030709155 -0.037874624 -0.092127465 -0.088032916 0.032756433
0.030709155 -0.04811101 -0.06346559 0.03480371 0.009212747 -0.008189108 -0.092127465 0.018425494
-0.07472561 -0.12386026 -0.046063732 -0.065512866 -0.016378216 0.0010236385 -0.004094554 -0.024567325
-0.08905655 -0.059371036 -0.04094554 0.05527648 0.037874624 -0.04811101 -0.017401855 -0.102363855
-0.11669479 -0.07063106 0.014330939 0.05015829 0.022520047 -0.010236385 -0.102363855 -0.044016458
-0.03582735 -0.012283662 -0.079843804 0.046063732 -0.08291472 -0.099292934 0.002047277 -0.028661879
-0.024567325 -0.059371036 -0.029685518 -0.02047277 -0.05015829 0.011260023 -0.04094554 -0.053229205
-0.008189108 -0.053229205 -0.011260023 -0.018425494 0.024567325 -0.07370198 0.022520047 0.0
-0.013307301 0.03685099 -0.057323758 0.018425494 0.038898263 0.006141831 -0.05425284 0.011260023
-0.017401855 -0.014330939 -0.060394675 0.02047277 0.006141831 -0.002047277 0.03685099 -0.04811101
-0.02149641 -0.006141831 -0.030709155 -0.04913465 -0.008189108 -0.04196918 0.031732794 -0.0665365
-0.072678335 -0.09417474 -0.032756433 -0.02047277 0.033780072 0.0 -0.10850568 -0.029685518
-0.008189108 -0.065512866 -0.07882017 0.013307301 0.002047277 0.0030709156 -0.02047277 0.017401855
0.004094554 0.023543686 -0.031732794 0.018425494 0.032756433 0.02149641 -0.10441113 -0.06448923
-0.08189108 -0.08086745 -0.009212747 -0.044016458 -0.08291472 0.04913465 -0.05425284 -0.019449132
-0.026614603 0.026614603 -0.057323758 -0.010236385 0.038898263 -0.06448923 -0.02763824 -0.04811101
-0.04811101 -0.012283662 -0.08189108 0.0030709156 0.0051181926 0.02149641 -0.095198385 -0.06346559
-0.008189108 -0.07472561 -0.011260023 0.028661879 0.08291472 -0.019449132 -0.058347397 -0.025590964
-0.0716547 -0.012283662 -0.06141831 0.002047277 -0.014330939 0.013307301 0.022520047 -0.102363855
00000000: 0da6 113b 2c39 b3c2 bea1 b32a fa0f 90ab
00000010: eb0c 27d1 b9a3 cdeb ef1e e304 102d ffff
00000020: 05ac c3ec 0ce2 33a1 ab1d 1afb f48b 19d9
00000030: 2ae5 c112 3f18 ef22 99a8 129b f2f1 32e7
00000040: 1cbb cade 24f2 edee acee 1eda 183f c6bd
00000050: f81c 99ec a703 b2b3 123a e2fc aafb cd9e
00000060: f88c b103 13fb 000b 9be2 e0e2 dba6 aa20
00000070: 1ed1 c222 09f8 a612 b787 d3c0 f001 fce8
00000080: a9c6 d836 25d1 ef9c 8ebb 0e31 16f6 9cd5
00000090: ddf4 b22d af9f 02e4 e8c6 e3ec cf0b d8cc
000000a0: f8cc f5ee 18b8 1600 f324 c812 2606 cb0b
000000b0: eff2 c514 06fe 24d1 ebfa e2d0 f8d7 1fbf
000000c0: b9a4 e0ec 2100 96e3 f8c0 b30d 0203 ec11
000000d0: 0417 e112 2015 9ac1 b0b1 f7d5 af30 cbed
000000e0: e61a c8f6 26c1 e5d1 d1f4 b003 0515 a3c2
000000f0: f8b7 f51c 51ed c7e7 baf4 c402 f20d 169c

tfl.pseudo_qconst3 i1 [64, 1, 1, 64]
74 75 114 75 113 -50 95 -46
64 -33 27 94 2 2 -44 -15
14 -1 127 -46 -45 -18 1 -13
102 -93 79 111 41 52 13 -7
-25 32 -21 21 -54 0 29 91
39 -71 98 -69 -3 21 -62 2
-79 61 -8 -15 96 73 -73 -110
46 -61 45 -69 -31 -83 -58 34
48 -89 -74 46 30 6 73 22
-51 42 -40 31 -62 39 -123 -72
37 95 127 61 60 -31 56 32
40 -3 97 -15 68 -34 80 108
-72 -68 26 -36 26 23 32 -32
-100 -78 -26 -118 112 -50 -3 54
99 41 -31 48 78 53 -66 -56
-61 -78 91 71 -87 78 28 -2
81 78 -87 48 -5 102 19 127
-118 82 -98 -119 -47 -14 -120 -104
-52 9 -39 -79 -88 4 -19 -21
62 53 4 -10 25 -73 -64 -82
16 -71 -62 -24 -75 -67 74 2
-8 -3 -66 -35 7 56 -103 55
-26 -8 124 -115 -26 -8 -111 -56
78 39 69 -63 108 -30 -91 44
-87 -55 39 -59 121 -31 -32 12
124 71 52 47 58 68 -85 46
-87 47 3 -100 -8 -80 3 -37
16 -40 54 5 -51 -76 -86 -99
-9 87 8 45 79 -11 18 49
-3 122 14 78 -19 84 -34 -94
-44 -8 -35 8 79 49 127 2
59 63 50 121 -14 -5 21 94
00000000: 4a4b 724b 71ce 5fd2 40df 1b5e 0202 d4f1
00000010: 0eff 7fd2 d3ee 01f3 66a3 4f6f 2934 0df9
00000020: e720 eb15 ca00 1d5b 27b9 62bb fd15 c202
00000030: b13d f8f1 6049 b792 2ec3 2dbb e1ad c622
00000040: 30a7 b62e 1e06 4916 cd2a d81f c227 85b8
00000050: 255f 7f3d 3ce1 3820 28fd 61f1 44de 506c
00000060: b8bc 1adc 1a17 20e0 9cb2 e68a 70ce fd36
00000070: 6329 e130 4e35 bec8 c3b2 5b47 a94e 1cfe
00000080: 514e a930 fb66 137f 8a52 9e89 d1f2 8898
00000090: cc09 d9b1 a804 edeb 3e35 04f6 19b7 c0ae
000000a0: 10b9 c2e8 b5bd 4a02 f8fd bedd 0738 9937
000000b0: e6f8 7c8d e6f8 91c8 4e27 45c1 6ce2 a52c
000000c0: a9c9 27c5 79e1 e00c 7c47 342f 3a44 ab2e
000000d0: a92f 039c f8b0 03db 10d8 3605 cdb4 aa9d
000000e0: f757 082d 4ff5 1231 fd7a 0e4e ed54 dea2
000000f0: d4f8 dd08 4f31 7f02 3b3f 3279 f2fb 155e

tfl.pseudo_qconst5 i1 [1, 23, 1, 64]
7 26 55 -14 52 46 43 -53
-37 -65 -24 50 -66 26 123 -38
-1 -25 -37 -39 -39 65 -102 -47
59 127 55 50 -8 -64 42 77
58 -21 -4 70 7 65 10 127
-10 -106 53 23 -61 97 -88 -18
26 45 -81 -19 -31 -73 99 -32
60 127 -60 5 46 -59 52 86
-107 1 116 -77 53 75 87 -81
94 38 2 -46 -3 15 -19 -22
25 61 32 -44 -127 -62 -127 -104
-7 -34 -3 20 -80 29 -16 127
127 -2 -59 25 127 51 67 -5
-29 -127 -66 -81 -115 43 -127 -95
-24 -18 10 -40 43 -4 93 7
-2 85 4 53 2 -41 101 66
-13 10 20 -58 -45 87 32 7
67 19 49 -61 46 109 56 -1
94 127 -25 -57 -12 72 -44 -127
-17 21 -12 127 47 41 3 -17
116 -92 33 42 101 -53 47 93
66 -5 -38 14 -41 -4 -27 -123
12 -30 -4 -73 -114 69 71 94
-74 18 -28 90 25 -18 61 78
-20 -27 10 -39 1 33 41 -50
38 37 -48 55 25 72 80 -34
-61 21 -24 -114 12 -43 -67 -61
-56 -39 -55 -66 77 -38 -19 -49
115 -30 -76 -34 102 -56 19 -29
79 25 7 29 -121 17 -50 -127
93 -64 19 -66 69 37 14 56
-24 29 -37 73 28 -11 77 -79
00000000: 071a 37f2 342e 2bcb dbbf e832 be1a 7bda
00000010: ffe7 dbd9 d941 9ad1 3b7f 3732 f8c0 2a4d
00000020: 3aeb fc46 0741 0a7f f696 3517 c361 a8ee
00000030: 1a2d afed e1b7 63e0 3c7f c405 2ec5 3456
00000040: 9501 74b3 354b 57af 5e26 02d2 fd0f edea
00000050: 193d 20d4 81c2 8198 f9de fd14 b01d f07f
00000060: 7ffe c519 7f33 43fb e381 beaf 8d2b 81a1
00000070: e8ee 0ad8 2bfc 5d07 fe55 0435 02d7 6542
00000080: f30a 14c6 d357 2007 4313 31c3 2e6d 38ff
00000090: 5e7f e7c7 f448 d481 ef15 f47f 2f29 03ef
000000a0: 74a4 212a 65cb 2f5d 42fb da0e d7fc e585
000000b0: 0ce2 fcb7 8e45 475e b612 e45a 19ee 3d4e
000000c0: ece5 0ad9 0121 29ce 2625 d037 1948 50de
000000d0: c315 e88e 0cd5 bdc3 c8d9 c9be 4dda edcf
000000e0: 73e2 b4de 66c8 13e3 4f19 071d 8711 ce81
000000f0: 5dc0 13be 4525 0e38 e81d db49 1cf5 4db1

tfl.pseudo_qconst7 i1 [64, 1, 1, 64]
-1 48 -116 -114 -3 -80 -53 -37
86 107 57 23 -50 -73 56 63
-31 62 -3 62 35 0 -52 -75
-127 7 -17 -57 -104 -7 -52 -22
87 99 -11 23 15 65 20 -49
-64 84 -42 80 -84 52 49 46
-87 -93 104 -23 -95 90 -36 52
81 -39 101 -83 56 44 27 0
-71 -60 96 -37 115 -124 -3 97
-63 89 77 -43 78 -26 -45 -51
-88 56 32 9 40 -30 -40 -81
51 23 15 87 19 47 13 10
127 -13 -28 23 -80 53 -31 -72
-57 -94 33 115 40 81 -69 -74
-31 11 13 123 11 -33 -80 93
53 60 76 38 70 -8 -70 -26
-3 -78 -79 30 72 41 -74 20
80 -23 -24 -14 70 86 -98 49
-5 80 107 -27 0 79 -53 53
-10 -33 -6 44 6 54 -15 64
-49 -62 77 2 -117 -27 82 41
127 38 -1 31 7 12 80 6
-71 120 83 -10 88 -52 -98 -82
73 -109 -89 -5 -19 -107 8 72
55 96 -47 -14 -11 -42 -32 -17
-29 -44 32 -91 16 -56 29 107
-7 -23 36 64 -89 0 -43 -103
-123 75 -127 94 -74 56 94 -105
-32 65 -66 64 -62 -43 53 -17
87 30 -46 -80 60 -45 65 21
3 -50 36 -68 -27 79 121 106
14 -2 -50 14 50 -17 -29 4
00000000: ff30 8c8e fdb0 cbdb 566b 3917 ceb7 383f
00000010: e13e fd3e 2300 ccb5 8107 efc7 98f9 ccea
00000020: 5763 f517 0f41 14cf c054 d650 ac34 312e
00000030: a9a3 68e9 a15a dc34 51d9 65ad 382c 1b00
00000040: b9c4 60db 7384 fd61 c159 4dd5 4ee6 d3cd
00000050: a838 2009 28e2 d8af 3317 0f57 132f 0d0a
00000060: 7ff3 e417 b035 e1b8 c7a2 2173 2851 bbb6
00000070: e10b 0d7b 0bdf b05d 353c 4c26 46f8 bae6
00000080: fdb2 b11e 4829 b614 50e9 e8f2 4656 9e31
00000090: fb50 6be5 004f cb35 f6df fa2c 0636 f140
000000a0: cfc2 4d02 8be5 5229 7f26 ff1f 070c 5006
000000b0: b978 53f6 58cc 9eae 4993 a7fb ed95 0848
000000c0: 3760 d1f2 f5d6 e0ef e3d4 20a5 10c8 1d6b
000000d0: f9e9 2440 a700 d599 854b 815e b638 5e97
000000e0: e041 be40 c2d5 35ef 571e d2b0 3cd3 4115
000000f0: 03ce 24bc e54f 796a 0efe ce0e 32ef e304

tfl.pseudo_qconst9 i1 [1, 15, 1, 32]
46 -32 4 -35 -97 121 56 -16
-127 35 113 25 83 61 -113 72
5 -7 70 7 25 -96 -62 21
70 27 123 -52 -96 -88 -107 -22
15 -87 56 58 -27 37 1 106
-116 -101 30 81 -49 -127 -127 10
94 -24 -76 -26 -85 -38 65 -42
86 102 -56 -97 56 -14 -92 42
-58 104 -112 74 0 98 30 110
7 9 127 26 -61 97 114 -9
42 94 -64 45 54 48 93 -59
55 99 -25 -101 -92 -127 -127 -33
13 97 31 41 77 -32 -21 58
40 38 -22 87 -31 66 -119 -25
70 127 -36 -38 -13 8 89 -8
20 -2 -79 -4 23 -107 -62 -13
11 103 -79 97 73 122 65 -102
-78 -64 6 127 -89 28 107 -20
5 4 -85 -21 52 -12 127 58
-9 8 118 -127 25 43 -34 71
-19 108 -4 -71 82 -87 91 -30
-82 0 -33 114 -88 -32 -103 -6
27 -15 -101 20 -101 -2 74 2
115 -14 18 -90 127 58 30 87
-36 -9 10 -82 66 -127 23 -67
-79 50 11 24 -39 36 -123 105
-57 58 8 57 -85 6 18 -60
-56 -71 9 12 110 -95 -2 71
-26 42 -113 127 3 4 112 -127
-97 -97 -23 -72 -11 -15 -56 -30
0 100 89 5 -60 1 1 -24
44 -43 -14 63 35 -37 20 40
00000000: 2ee0 04dd 9f79 38f0 8123 7119 533d 8f48
00000010: 05f9 4607 19a0 c215 461b 7bcc a0a8 95ea
00000020: 0fa9 383a e525 016a 8c9b 1e51 cf81 810a
00000030: 5ee8 b4e6 abda 41d6 5666 c89f 38f2 a42a
00000040: c668 904a 0062 1e6e 0709 7f1a c361 72f7
00000050: 2a5e c02d 3630 5dc5 3763 e79b a481 81df
00000060: 0d61 1f29 4de0 eb3a 2826 ea57 e142 89e7
00000070: 467f dcda f308 59f8 14fe b1fc 1795 c2f3
00000080: 0b67 b161 497a 419a b2c0 067f a71c 6bec
00000090: 0504 abeb 34f4 7f3a f708 7681 192b de47
000000a0: ed6c fcb9 52a9 5be2 ae00 df72 a8e0 99fa
000000b0: 1bf1 9b14 9bfe 4a02 73f2 12a6 7f3a 1e57
000000c0: dcf7 0aae 4281 17bd b132 0b18 d924 8569
000000d0: c73a 0839 ab06 12c4 c8b9 090c 6ea1 fe47
000000e0: e62a 8f7f 0304 7081 9f9f e9b8 f5f1 c8e2
000000f0: 0064 5905 c401 01e8 2cd5 f23f 23db 1428

tfl.pseudo_qconst11 i1 [1, 9, 1, 32]
-104 14 -70 41 -127 6 -20 25
-127 62 76 -19 -113 -87 33 107
90 -76 126 -79 46 -73 -39 -55
85 -38 -48 100 -105 76 -27 66
-98 -101 32 6 -34 -123 79 127
-79 20 -46 46 40 13 116 -27
7 -46 82 -73 -21 -127 -71 -27
-5 -39 64 88 123 -3 -56 9
104 -76 -91 18 -124 66 -127 -40
63 19 127 92 2 9 90 -90
-98 26 54 27 -96 41 -30 62
102 82 -120 107 -21 -100 127 -10
67 -127 -79 -58 16 104 53 -70
-2 -17 89 24 123 6 88 118
65 7 58 43 -73 -98 -40 127
-34 -39 -4 22 82 -127 5 75
25 101 67 -7 -104 6 91 66
6 96 -85 -66 127 -82 98 -73
8 -21 112 21 84 -117 45 -87
127 123 -65 121 65 32 -24 9
-112 -52 -106 -118 68 -40 22 -5
6 52 -32 -127 -19 -127 -83 43
127 -45 91 127 96 -115 82 9
87 59 -31 102 31 -92 21 65
104 24 -127 35 84 -66 -117 123
52 102 2 24 -67 33 -47 -95
112 24 -100 102 -62 -119 127 -123
76 -120 26 -49 36 -58 85 -51
-127 -5 -74 51 90 -127 82 -77
109 82 -110 -18 77 -44 77 -81
-68 -127 -69 81 33 19 55 -22
116 93 127 -127 -127 -51 -83 -89
00000000: 980e ba29 8106 ec19 813e 4ced 8fa9 216b
00000010: 5ab4 7eb1 2eb7 d9c9 55da d064 974c e542
00000020: 9e9b 2006 de85 4f7f b114 d22e 280d 74e5
00000030: 07d2 52b7 eb81 b9e5 fbd9 4058 7bfd c809
00000040: 68b4 a512 8442 81d8 3f13 7f5c 0209 5aa6
00000050: 9e1a 361b a029 e23e 6652 886b eb9c 7ff6
00000060: 4381 b1c6 1068 35ba feef 5918 7b06 5876
00000070: 4107 3a2b b79e d87f ded9 fc16 5281 054b
00000080: 1965 43f9 9806 5b42 0660 abbe 7fae 62b7
00000090: 08eb 7015 548b 2da9 7f7b bf79 4120 e809
000000a0: 90cc 968a 44d8 16fb 0634 e081 ed81 ad2b
000000b0: 7fd3 5b7f 608d 5209 573b e166 1fa4 1541
000000c0: 6818 8123 54be 8b7b 3466 0218 bd21 d1a1
000000d0: 7018 9c66 c289 7f85 4c88 1acf 24c6 55cd
000000e0: 81fb b633 5a81 52b3 6d52 92ee 4dd4 4daf
000000f0: bc81 bb51 2113 37ea 745d 7f81 81cd ada7

tfl.pseudo_qconst13 i1 [64, 1, 1, 64]
-116 47 -82 -77 -72 28 -47 -74
92 87 85 3 -12 -7 -29 -118
91 75 -125 -29 95 96 31 -97
30 -62 54 78 -44 -79 114 36
117 80 85 -19 -115 97 85 -82
55 -98 32 -109 13 116 -114 -84
-51 -113 55 -72 -100 -14 98 -76
-21 58 -71 91 69 54 127 110
-3 -70 52 -82 51 -55 86 29
-33 59 36 76 32 -21 12 33
-65 50 98 -127 -23 52 -25 10
-24 -47 -87 -16 8 61 -58 -67
-50 82 21 4 3 -55 59 43
39 101 -48 -9 -45 -12 -76 -6
77 -42 -70 -87 86 -89 26 -72
42 -71 11 25 -7 0 9 -17
119 13 11 -86 75 -75 -56 -86
42 -104 120 78 -85 15 -80 -125
-75 46 122 -30 -35 40 43 93
57 55 -100 -45 -82 77 -43 -57
-84 42 -1 40 -117 -112 -13 99
14 -39 49 -108 -23 -93 -20 99
12 71 127 -74 64 -54 -8 72
-25 -26 94 -22 -61 101 -19 -115
8 30 -98 -127 -108 -70 -40 36
43 -51 -65 6 76 -27 55 -116
115 -55 -3 -41 82 -8 -60 121
100 -7 -25 3 -5 -71 -50 -69
38 -50 22 -41 -90 -38 19 0
34 17 46 45 5 -75 -103 -10
49 -112 87 14 0 35 93 -2
30 80 70 -44 54 -60 48 -19
00000000: 8c2f aeb3 b81c d1b6 5c57 5503 f4f9 e38a
00000010: 5b4b 83e3 5f60 1f9f 1ec2 364e d4b1 7224
00000020: 7550 55ed 8d61 55ae 379e 2093 0d74 8eac
00000030: cd8f 37b8 9cf2 62b4 eb3a b95b 4536 7f6e
00000040: fdba 34ae 33c9 561d df3b 244c 20eb 0c21
00000050: bf32 6281 e934 e70a e8d1 a9f0 083d c6bd
00000060: ce52 1504 03c9 3b2b 2765 d0f7 d3f4 b4fa
00000070: 4dd6 baa9 56a7 1ab8 2ab9 0b19 f900 09ef
00000080: 770d 0baa 4bb5 c8aa 2a98 784e ab0f b083
00000090: b52e 7ae2 dd28 2b5d 3937 9cd3 ae4d d5c7
000000a0: ac2a ff28 8b90 f363 0ed9 3194 e9a3 ec63
000000b0: 0c47 7fb6 40ca f848 e7e6 5eea c365 ed8d
000000c0: 081e 9e81 94ba d824 2bcd bf06 4ce5 378c
000000d0: 73c9 fdd7 52f8 c479 64f9 e703 fbb9 cebb
000000e0: 26ce 16d7 a6da 1300 2211 2e2d 05b5 99f6
000000f0: 3190 570e 0023 5dfe 1e50 46d4 36c4 30ed

tfl.pseudo_qconst15 i1 [1, 11, 1, 32]
31 127 55 -28 102 -47 95 -16
33 -30 -80 37 -66 -62 -15 24
40 45 21 102 -28 -20 111 -32
-20 -87 127 33 -80 17 -36 -81
102 53 -95 -109 -53 -24 58 -48
57 -14 -113 -19 82 -72 40 -64
-92 30 50 44 -51 67 6 -70
87 -13 -35 39 -34 -8 76 -3
-17 -31 -127 -68 8 34 -63 26
36 -3 -48 23 -90 -59 -127 -35
-79 44 127 13 -85 17 -17 -81
-70 -127 121 -53 -86 50 52 127
-96 -6 23 -8 25 29 -55 -85
87 22 -26 -64 2 -68 113 -73
99 -29 48 -30 -16 -47 33 -114
61 -94 -21 -127 -45 -72 -82 66
-68 30 1 -33 -68 -16 -112 -83
79 38 106 -109 -115 15 119 -97
122 18 103 -94 -70 96 -127 -75
-72 35 83 -52 -87 -127 -5 99
76 -1 -50 109 -67 -18 -10 51
52 -10 -110 -127 -52 127 -86 -96
127 127 -12 11 52 127 88 -8
64 8 -21 -48 68 -105 31 -65
-13 -11 -38 51 67 -91 15 23
-46 38 68 -28 127 -63 16 -127
-21 69 -27 -11 -74 37 -65 54
-42 65 4 -43 -13 -31 68 -117
-127 -100 -105 -20 65 -81 48 -127
127 32 -57 41 108 67 -13 -35
-92 -33 29 127 -16 -28 -38 -127
41 25 9 24 13 43 -44 64
00000000: 1f7f 37e4 66d1 5ff0 21e2 b025 bec2 f118
00000010: 282d 1566 e4ec 6fe0 eca9 7f21 b011 dcaf
00000020: 6635 a193 cbe8 3ad0 39f2 8fed 52b8 28c0
00000030: a41e 322c cd43 06ba 57f3 dd27 def8 4cfd
00000040: efe1 81bc 0822 c11a 24fd d017 a6c5 81dd
00000050: b12c 7f0d ab11 efaf ba81 79cb aa32 347f
00000060: a0fa 17f8 191d c9ab 5716 e6c0 02bc 71b7
00000070: 63e3 30e2 f0d1 218e 3da2 eb81 d3b8 ae42
00000080: bc1e 01df bcf0 90ad 4f26 6a93 8d0f 779f
00000090: 7a12 67a2 ba60 81b5 b823 53cc a981 fb63
000000a0: 4cff ce6d bdee f633 34f6 9281 cc7f aaa0
000000b0: 7f7f f40b 347f 58f8 4008 ebd0 4497 1fbf
000000c0: f3f5 da33 43a5 0f17 d226 44e4 7fc1 1081
000000d0: eb45 e5f5 b625 bf36 d641 04d5 f3e1 448b
000000e0: 819c 97ec 41af 3081 7f20 c729 6c43 f3dd
000000f0: a4df 1d7f f0e4 da81 2919 0918 0d2b d440

tfl.pseudo_qconst17 i1 [1, 7, 1, 32]
127 1 99 31 115 11 -127 -127
38 -50 108 -29 71 16 -103 52
124 13 54 -89 61 6 106 39
-23 4 -6 -17 36 -127 -12 -98
47 -127 11 -12 127 127 49 17
-127 49 34 -127 65 101 -69 123
88 -117 50 61 -88 -15 61 15
89 -16 38 103 93 31 71 8
75 -59 32 -1 -30 -63 61 -35
97 -78 -6 -101 -37 -99 20 116
54 4 37 127 -89 -127 23 113
-127 -43 -110 -51 -2 -105 57 -80
90 42 -80 -101 -6 -75 38 -108
49 -75 -56 59 -3 95 127 -127
-29 -41 90 95 127 -45 80 86
25 122 32 -96 -127 76 -27 -83
44 -83 30 -10 -69 -72 61 -29
-62 -111 -127 -7 67 -127 -51 -36
-2 -127 127 -5 -85 -98 127 -98
-25 -124 -127 68 -38 39 -51 -127
48 -57 12 -2 -68 46 -99 -72
-41 -127 -75 52 64 -91 -29 90
-86 -72 -5 34 -4 26 -79 -127
5 127 77 -80 -42 -12 127 -12
-103 -105 -127 -127 -71 -4 -62 -64
-105 0 -41 29 -127 -25 -7 -58
127 -34 67 -10 -25 59 54 36
-19 -121 87 -127 85 -92 82 -103
00000000: 7f01 631f 730b 8181 26ce 6ce3 4710 9934
00000010: 7c0d 36a7 3d06 6a27 e904 faef 2481 f49e
00000020: 2f81 0bf4 7f7f 3111 8131 2281 4165 bb7b
00000030: 588b 323d a8f1 3d0f 59f0 2667 5d1f 4708
00000040: 4bc5 20ff e2c1 3ddd 61b2 fa9b db9d 1474
00000050: 3604 257f a781 1771 81d5 92cd fe97 39b0
00000060: 5a2a b09b fab5 2694 31b5 c83b fd5f 7f81
00000070: e3d7 5a5f 7fd3 5056 197a 20a0 814c e5ad
00000080: 2cad 1ef6 bbb8 3de3 c291 81f9 4381 cddc
00000090: fe81 7ffb ab9e 7f9e e784 8144 da27 cd81
000000a0: 30c7 0cfe bc2e 9db8 d781 b534 40a5 e35a
000000b0: aab8 fb22 fc1a b181 057f 4db0 d6f4 7ff4
000000c0: 9997 8181 b9fc c2c0 9700 d71d 81e7 f9c6
000000d0: 7fde 43f6 e73b 3624 ed87 5781 55a4 5299

tfl.pseudo_qconst19 i1 [64, 1, 1, 32]
126 -27 5 -38 85 -5 27 -51
114 -84 -51 16 24 -33 -75 -19
127 -60 -38 69 45 -87 -74 3
13 77 108 -21 6 -59 -51 -73
-111 42 39 59 -32 -46 59 8
101 -43 -67 81 -29 12 -27 15
-63 -14 -126 -28 -105 -2 -49 -52
-59 -31 -63 -55 27 127 -1 40
-12 -49 -123 -82 44 -51 58 -113
-71 -124 -8 49 -105 11 108 13
-12 47 -93 113 -28 -111 122 60
9 -120 -127 9 -39 -47 -124 64
-114 55 33 -60 -5 62 -64 74
-2 114 -35 58 -11 -66 -41 19
-95 59 -3 -12 46 29 127 30
-4 -107 17 -2 -12 -26 43 42
14 30 3 17 -40 -56 95 -27
115 -15 60 127 54 60 -75 -64
79 -68 0 18 31 76 41 24
88 25 -67 -50 27 34 66 56
127 -7 -40 -24 -118 37 -23 -73
-29 109 -70 19 -13 -94 -76 115
60 95 -70 -122 41 -96 -116 -33
-93 87 74 -7 -120 -55 -78 -39
-77 127 33 9 90 -62 87 -24
-81 -53 36 -88 -39 7 -15 84
-75 55 60 -77 -68 13 21 -44
56 -92 35 0 -59 6 32 35
17 -16 -35 68 -105 16 -72 123
-65 -40 -25 -66 -95 -86 -113 -59
43 -25 93 -57 -37 -4 127 -47
-100 35 76 -39 -8 62 -62 -90
00000000: 7ee5 05da 55fb 1bcd 72ac cd10 18df b5ed
00000010: 7fc4 da45 2da9 b603 0d4d 6ceb 06c5 cdb7
00000020: 912a 273b e0d2 3b08 65d5 bd51 e30c e50f
00000030: c1f2 82e4 97fe cfcc c5e1 c1c9 1b7f ff28
00000040: f4cf 85ae 2ccd 3a8f b984 f831 970b 6c0d
00000050: f42f a371 e491 7a3c 0988 8109 d9d1 8440
00000060: 8e37 21c4 fb3e c04a fe72 dd3a f5be d713
00000070: a13b fdf4 2e1d 7f1e fc95 11fe f4e6 2b2a
00000080: 0e1e 0311 d8c8 5fe5 73f1 3c7f 363c b5c0
00000090: 4fbc 0012 1f4c 2918 5819 bdce 1b22 4238
000000a0: 7ff9 d8e8 8a25 e9b7 e36d ba13 f3a2 b473
000000b0: 3c5f ba86 29a0 8cdf a357 4af9 88c9 b2d9
000000c0: b37f 2109 5ac2 57e8 afcb 24a8 d907 f154
000000d0: b537 3cb3 bc0d 15d4 38a4 2300 c506 2023
000000e0: 11f0 dd44 9710 b87b bfd8 e7be a1aa 8fc5
000000f0: 2be7 5dc7 dbfc 7fd1 9c23 4cd9 f83e c2a6

tfl.pseudo_qconst21 i1 [1, 5, 1, 32]
-127 9 37 105 -12 114 115 -126
-107 -127 46 -110 -76 50 -88 -54
-120 -85 -12 -29 6 53 48 127
-18 -37 -39 -105 78 66 -49 59
49 13 105 33 -97 111 127 47
-73 -17 -26 29 64 48 -72 92
127 22 -127 17 118 88 127 35
12 -33 -96 -127 -10 88 -88 -45
42 67 15 56 62 20 -53 -127
-60 124 -12 96 86 45 88 -44
125 -73 7 -62 127 -127 -87 -113
35 127 91 -70 25 -127 127 -103
0 -12 -92 -127 -127 -127 -74 -105
-127 11 127 70 -13 116 -127 -127
-91 127 48 59 70 100 -41 28
114 -63 -127 17 -127 115 24 -90
-116 -127 127 -61 -3 117 5 69
52 -27 -93 127 -127 127 -54 79
-15 -64 10 -127 45 -107 63 -68
127 -104 41 -49 71 103 53 127
00000000: 8109 2569 f472 7382 9581 2e92 b432 a8ca
00000010: 88ab f4e3 0635 307f eedb d997 4e42 cf3b
00000020: 310d 6921 9f6f 7f2f b7ef e61d 4030 b85c
00000030: 7f16 8111 7658 7f23 0cdf a081 f658 a8d3
00000040: 2a43 0f38 3e14 cb81 c47c f460 562d 58d4
00000050: 7db7 07c2 7f81 a98f 237f 5bba 1981 7f99
00000060: 00f4 a481 8181 b697 810b 7f46 f374 8181
00000070: a57f 303b 4664 d71c 72c1 8111 8173 18a6
00000080: 8c81 7fc3 fd75 0545 34e5 a37f 817f ca4f
00000090: f1c0 0a81 2d95 3fbc 7f98 29cf 4767 357f

tfl.pseudo_qconst23 i1 [32, 5, 1, 40]
-35 -27 31 48 46 17 44 74
-9 -71 56 -12 0 -43 24 -28
68 -80 -49 -39 -73 -69 -28 50
-39 -30 0 -59 -100 11 11 20
22 -27 25 107 -20 28 6 76
-105 -64 10 78 9 27 31 39
64 15 -51 -30 -36 -4 35 -50
24 -14 -67 28 55 -10 72 5
34 37 55 -26 -3 45 35 38
102 63 66 30 -59 10 -8 -21
-21 -4 -84 117 52 67 79 86
18 -95 48 -110 -9 -69 49 -10
63 -33 49 -7 73 51 51 13
74 50 36 88 39 -45 46 -19
61 127 15 80 49 58 48 59
-77 27 -28 112 38 -15 36 43
28 -7 -83 49 45 -64 -52 34
-21 28 -46 47 25 -53 9 94
-19 34 -6 -32 80 22 -25 34
99 35 -27 -34 -59 50 -63 77
60 80 48 24 110 20 92 86
54 -10 -36 -20 71 54 37 -2
74 60 17 6 77 -86 -64 -17
50 -9 -12 37 26 3 -37 51
-33 67 11 -20 -25 7 32 -51
2 -10 18 -16 -12 -80 16 25
-82 -16 72 105 10 4 23 69
105 -17 -27 18 8 -25 -35 -59
-22 52 -69 -114 14 1 33 -89
0 52 26 -25 -90 -4 55 28
-9 23 26 -24 -64 -67 8 -74
47 115 -11 81 26 57 70 -48
00000000: dde5 1f30 2e11 2c4a f7b9 38f4 00d5 18e4
00000010: 44b0 cfd9 b7bb e432 d9e2 00c5 9c0b 0b14
00000020: 16e5 196b ec1c 064c 97c0 0a4e 091b 1f27
00000030: 400f cde2 dcfc 23ce 18f2 bd1c 37f6 4805
00000040: 2225 37e6 fd2d 2326 663f 421e c50a f8eb
00000050: ebfc ac75 3443 4f56 12a1 3092 f7bb 31f6
00000060: 3fdf 31f9 4933 330d 4a32 2458 27d3 2eed
00000070: 3d7f 0f50 313a 303b b31b e470 26f1 242b
00000080: 1cf9 ad31 2dc0 cc22 eb1c d22f 19cb 095e
00000090: ed22 fae0 5016 e722 6323 e5de c532 c14d
000000a0: 3c50 3018 6e14 5c56 36f6 dcec 4736 25fe
000000b0: 4a3c 1106 4daa c0ef 32f7 f425 1a03 db33
000000c0: df43 0bec e707 20cd 02f6 12f0 f4b0 1019
000000d0: aef0 4869 0a04 1745 69ef e512 08e7 ddc5
000000e0: ea34 bb8e 0e01 21a7 0034 1ae7 a6fc 371c
000000f0: f717 1ae8 c0bd 08b6 2f73 f551 1a39 46d0

tfl.pseudo_qconst24 i1 [1, 14, 1, 64] scale=0.037274793 zero_point=-128
0.0 0.0 0.0 0.0 0.0 0.0 0.0 0.0
0.0 0.0 0.0 0.0 0.0 0.0 0.0 0.0
0.0 0.0 0.0 0.0 0.0 0.0 0.0 0.0
0.0 0.0 0.0 0.0 0.0 0.0 0.0 0.0
0.0 0.0 0.0 0.0 0.0 0.0 0.0 0.0
0.0 0.0 0.0 0.0 0.0 0.0 0.0 0.0
0.0 0.0 0.0 0.0 0.0 0.0 0.0 0.0
0.0 0.0 0.0 0.0 0.0 0.0 0.0 0.0
0.0 0.0 0.0 0.0 0.0 0.0 0.0 0.0
0.0 0.0 0.0 0.0 0.0 0.0 0.0 0.0
0.0 0.0 0.0 0.0 0.0 0.0 0.0 0.0
0.0 0.0 0.0 0.0 0.0 0.0 0.0 0.0
0.0 0.0 0.0 0.0 0.0 0.0 0.0 0.0
0.0 0.0 0.0 0.0 0.0 0.0 0.0 0.0
0.0 0.0 0.0 0.0 0.0 0.0 0.0 0.0
0.0 0.0 0.0 0.0 0.0 0.0 0.0 0.0
0.0 0.0 0.0 0.0 0.0 0.0 0.0 0.0
0.0 0.0 0.0 0.0 0.0 0.0 0.0 0.0
0.0 0.0 0.0 0.0 0.0 0.0 0.0 0.0
0.0 0.0 0.0 0.0 0.0 0.0 0.0 0.0
0.0 0.0 0.0 0.0 0.0 0.0 0.0 0.0
0.0 0.0 0.0 0.0 0.0 0.0 0.0 0.0
0.0 0.0 0.0 0.0 0.0 0.0 0.0 0.0
0.0 0.0 0.0 0.0 0.0 0.0 0.0 0.0
0.0 0.0 0.0 0.0 0.0 0.0 0.0 0.0
0.0 0.0 0.0 0.0 0.0 0.0 0.0 0.0
0.0 0.0 0.0 0.0 0.0 0.0 0.0 0.0
0.0 0.0 0.0 0.0 0.0 0.0 0.0 0.0
0.0 0.0 0.0 0.0 0.0 0.0 0.0 0.0
0.0 0.0 0.0 0.0 0.0 0.0 0.0 0.0
0.0 0.0 0.0 0.0 0.0 0.0 0.0 0.0
0.0 0.0 0.0 0.0 0.0 0.0 0.0 0.0
00000000: 8080 8080 8080 8080 8080 8080 8080 8080
00000010: 8080 8080 8080 8080 8080 8080 8080 8080
00000020: 8080 8080 8080 8080 8080 8080 8080 8080
00000030: 8080 8080 8080 8080 8080 8080 8080 8080
00000040: 8080 8080 8080 8080 8080 8080 8080 8080
00000050: 8080 8080 8080 8080 8080 8080 8080 8080
00000060: 8080 8080 8080 8080 8080 8080 8080 8080
00000070: 8080 8080 8080 8080 8080 8080 8080 8080
00000080: 8080 8080 8080 8080 8080 8080 8080 8080
00000090: 8080 8080 8080 8080 8080 8080 8080 8080
000000a0: 8080 8080 8080 8080 8080 8080 8080 8080
000000b0: 8080 8080 8080 8080 8080 8080 8080 8080
000000c0: 8080 8080 8080 8080 8080 8080 8080 8080
000000d0: 8080 8080 8080 8080 8080 8080 8080 8080
000000e0: 8080 8080 8080 8080 8080 8080 8080 8080
000000f0: 8080 8080 8080 8080 8080 8080 8080 8080

tfl.pseudo_qconst25 i1 [1, 10, 1, 64] scale=0.04678487 zero_point=-128
0.0 0.0 0.0 0.0 0.0 0.0 0.0 0.0
0.0 0.0 0.0 0.0 0.0 0.0 0.0 0.0
0.0 0.0 0.0 0.0 0.0 0.0 0.0 0.0
0.0 0.0 0.0 0.0 0.0 0.0 0.0 0.0
0.0 0.0 0.0 0.0 0.0 0.0 0.0 0.0
0.0 0.0 0.0 0.0 0.0 0.0 0.0 0.0
0.0 0.0 0.0 0.0 0.0 0.0 0.0 0.0
0.0 0.0 0.0 0.0 0.0 0.0 0.0 0.0
0.0 0.0 0.0 0.0 0.0 0.0 0.0 0.0
0.0 0.0 0.0 0.0 0.0 0.0 0.0 0.0
0.0 0.0 0.0 0.0 0.0 0.0 0.0 0.0
0.0 0.0 0.0 0.0 0.0 0.0 0.0 0.0
0.0 0.0 0.0 0.0 0.0 0.0 0.0 0.0
0.0 0.0 0.0 0.0 0.0 0.0 0.0 0.0
0.0 0.0 0.0 0.0 0.0 0.0 0.0 0.0
0.0 0.0 0.0 0.0 0.0 0.0 0.0 0.0
0.0 0.0 0.0 0.0 0.0 0.0 0.0 0.0
0.0 0.0 0.0 0.0 0.0 0.0 0.0 0.0
0.0 0.0 0.0 0.0 0.0 0.0 0.0 0.0
0.0 0.0 0.0 0.0 0.0 0.0 0.0 0.0
0.0 0.0 0.0 0.0 0.0 0.0 0.0 0.0
0.0 0.0 0.0 0.0 0.0 0.0 0.0 0.0
0.0 0.0 0.0 0.0 0.0 0.0 0.0 0.0
0.0 0.0 0.0 0.0 0.0 0.0 0.0 0.0
0.0 0.0 0.0 0.0 0.0 0.0 0.0 0.0
0.0 0.0 0.0 0.0 0.0 0.0 0.0 0.0
0.0 0.0 0.0 0.0 0.0 0.0 0.0 0.0
0.0 0.0 0.0 0.0 0.0 0.0 0.0 0.0
0.0 0.0 0.0 0.0 0.0 0.0 0.0 0.0
0.0 0.0 0.0 0.0 0.0 0.0 0.0 0.0
0.0 0.0 0.0 0.0 0.0 0.0 0.0 0.0
0.0 0.0 0.0 0.0 0.0 0.0 0.0 0.0
00000000: 8080 8080 8080 8080 8080 8080 8080 8080
00000010: 8080 8080 8080 8080 8080 8080 8080 8080
00000020: 8080 8080 8080 8080 8080 8080 8080 8080
00000030: 8080 8080 8080 8080 8080 8080 8080 8080
00000040: 8080 8080 8080 8080 8080 8080 8080 8080
00000050: 8080 8080 8080 8080 8080 8080 8080 8080
00000060: 8080 8080 8080 8080 8080 8080 8080 8080
00000070: 8080 8080 8080 8080 8080 8080 8080 8080
00000080: 8080 8080 8080 8080 8080 8080 8080 8080
00000090: 8080 8080 8080 8080 8080 8080 8080 8080
000000a0: 8080 8080 8080 8080 8080 8080 8080 8080
000000b0: 8080 8080 8080 8080 8080 8080 8080 8080
000000c0: 8080 8080 8080 8080 8080 8080 8080 8080
000000d0: 8080 8080 8080 8080 8080 8080 8080 8080
000000e0: 8080 8080 8080 8080 8080 8080 8080 8080
000000f0: 8080 8080 8080 8080 8080 8080 8080 8080

tfl.pseudo_qconst26 i1 [1, 4, 1, 32] scale=0.39035985 zero_point=-128
0.0 0.0 0.0 0.0 0.0 0.0 0.0 0.0
0.0 0.0 0.0 0.0 0.0 0.0 0.0 0.0
0.0 0.0 0.0 0.0 0.0 0.0 0.0 0.0
0.0 0.0 0.0 0.0 0.0 0.0 0.0 0.0
0.0 0.0 0.0 0.0 0.0 0.0 0.0 0.0
0.0 0.0 0.0 0.0 0.0 0.0 0.0 0.0
0.0 0.0 0.0 0.0 0.0 0.0 0.0 0.0
0.0 0.0 0.0 0.0 0.0 0.0 0.0 0.0
0.0 0.0 0.0 0.0 0.0 0.0 0.0 0.0
0.0 0.0 0.0 0.0 0.0 0.0 0.0 0.0
0.0 0.0 0.0 0.0 0.0 0.0 0.0 0.0
0.0 0.0 0.0 0.0 0.0 0.0 0.0 0.0
0.0 0.0 0.0 0.0 0.0 0.0 0.0 0.0
0.0 0.0 0.0 0.0 0.0 0.0 0.0 0.0
0.0 0.0 0.0 0.0 0.0 0.0 0.0 0.0
0.0 0.0 0.0 0.0 0.0 0.0 0.0 0.0
00000000: 8080 8080 8080 8080 8080 8080 8080 8080
00000010: 8080 8080 8080 8080 8080 8080 8080 8080
00000020: 8080 8080 8080 8080 8080 8080 8080 8080
00000030: 8080 8080 8080 8080 8080 8080 8080 8080
00000040: 8080 8080 8080 8080 8080 8080 8080 8080
00000050: 8080 8080 8080 8080 8080 8080 8080 8080
00000060: 8080 8080 8080 8080 8080 8080 8080 8080
00000070: 8080 8080 8080 8080 8080 8080 8080 8080

tfl.pseudo_qconst27 i1 [1, 2, 1, 40] scale=0.09849878 zero_point=-128
0.0 0.0 0.0 0.0 0.0 0.0 0.0 0.0
0.0 0.0 0.0 0.0 0.0 0.0 0.0 0.0
0.0 0.0 0.0 0.0 0.0 0.0 0.0 0.0
0.0 0.0 0.0 0.0 0.0 0.0 0.0 0.0
0.0 0.0 0.0 0.0 0.0 0.0 0.0 0.0
0.0 0.0 0.0 0.0 0.0 0.0 0.0 0.0
0.0 0.0 0.0 0.0 0.0 0.0 0.0 0.0
0.0 0.0 0.0 0.0 0.0 0.0 0.0 0.0
0.0 0.0 0.0 0.0 0.0 0.0 0.0 0.0
0.0 0.0 0.0 0.0 0.0 0.0 0.0 0.0
00000000: 8080 8080 8080 8080 8080 8080 8080 8080
00000010: 8080 8080 8080 8080 8080 8080 8080 8080
00000020: 8080 8080 8080 8080 8080 8080 8080 8080
00000030: 8080 8080 8080 8080 8080 8080 8080 8080
00000040: 8080 8080 8080 8080 8080 8080 8080 8080

tfl.pseudo_qconst28 i1 [1, 16, 1, 64] scale=0.031466793 zero_point=-128
0.0 0.0 0.0 0.0 0.0 0.0 0.0 0.0
0.0 0.0 0.0 0.0 0.0 0.0 0.0 0.0
0.0 0.0 0.0 0.0 0.0 0.0 0.0 0.0
0.0 0.0 0.0 0.0 0.0 0.0 0.0 0.0
0.0 0.0 0.0 0.0 0.0 0.0 0.0 0.0
0.0 0.0 0.0 0.0 0.0 0.0 0.0 0.0
0.0 0.0 0.0 0.0 0.0 0.0 0.0 0.0
0.0 0.0 0.0 0.0 0.0 0.0 0.0 0.0
0.0 0.0 0.0 0.0 0.0 0.0 0.0 0.0
0.0 0.0 0.0 0.0 0.0 0.0 0.0 0.0
0.0 0.0 0.0 0.0 0.0 0.0 0.0 0.0
0.0 0.0 0.0 0.0 0.0 0.0 0.0 0.0
0.0 0.0 0.0 0.0 0.0 0.0 0.0 0.0
0.0 0.0 0.0 0.0 0.0 0.0 0.0 0.0
0.0 0.0 0.0 0.0 0.0 0.0 0.0 0.0
0.0 0.0 0.0 0.0 0.0 0.0 0.0 0.0
0.0 0.0 0.0 0.0 0.0 0.0 0.0 0.0
0.0 0.0 0.0 0.0 0.0 0.0 0.0 0.0
0.0 0.0 0.0 0.0 0.0 0.0 0.0 0.0
0.0 0.0 0.0 0.0 0.0 0.0 0.0 0.0
0.0 0.0 0.0 0.0 0.0 0.0 0.0 0.0
0.0 0.0 0.0 0.0 0.0 0.0 0.0 0.0
0.0 0.0 0.0 0.0 0.0 0.0 0.0 0.0
0.0 0.0 0.0 0.0 0.0 0.0 0.0 0.0
0.0 0.0 0.0 0.0 0.0 0.0 0.0 0.0
0.0 0.0 0.0 0.0 0.0 0.0 0.0 0.0
0.0 0.0 0.0 0.0 0.0 0.0 0.0 0.0
0.0 0.0 0.0 0.0 0.0 0.0 0.0 0.0
0.0 0.0 0.0 0.0 0.0 0.0 0.0 0.0
0.0 0.0 0.0 0.0 0.0 0.0 0.0 0.0
0.0 0.0 0.0 0.0 0.0 0.0 0.0 0.0
0.0 0.0 0.0 0.0 0.0 0.0 0.0 0.0
00000000: 8080 8080 8080 8080 8080 8080 8080 8080
00000010: 8080 8080 8080 8080 8080 8080 8080 8080
00000020: 8080 8080 8080 8080 8080 8080 8080 8080
00000030: 8080 8080 8080 8080 8080 8080 8080 8080
00000040: 8080 8080 8080 8080 8080 8080 8080 8080
00000050: 8080 8080 8080 8080 8080 8080 8080 8080
00000060: 8080 8080 8080 8080 8080 8080 8080 8080
00000070: 8080 8080 8080 8080 8080 8080 8080 8080
00000080: 8080 8080 8080 8080 8080 8080 8080 8080
00000090: 8080 8080 8080 8080 8080 8080 8080 8080
000000a0: 8080 8080 8080 8080 8080 8080 8080 8080
000000b0: 8080 8080 8080 8080 8080 8080 8080 8080
000000c0: 8080 8080 8080 8080 8080 8080 8080 8080
000000d0: 8080 8080 8080 8080 8080 8080 8080 8080
000000e0: 8080 8080 8080 8080 8080 8080 8080 8080
000000f0: 8080 8080 8080 8080 8080 8080 8080 8080

tfl.pseudo_qconst29 i1 [1, 22, 1, 64] scale=0.035436742 zero_point=-128
0.0 0.0 0.0 0.0 0.0 0.0 0.0 0.0
0.0 0.0 0.0 0.0 0.0 0.0 0.0 0.0
0.0 0.0 0.0 0.0 0.0 0.0 0.0 0.0
0.0 0.0 0.0 0.0 0.0 0.0 0.0 0.0
0.0 0.0 0.0 0.0 0.0 0.0 0.0 0.0
0.0 0.0 0.0 0.0 0.0 0.0 0.0 0.0
0.0 0.0 0.0 0.0 0.0 0.0 0.0 0.0
0.0 0.0 0.0 0.0 0.0 0.0 0.0 0.0
0.0 0.0 0.0 0.0 0.0 0.0 0.0 0.0
0.0 0.0 0.0 0.0 0.0 0.0 0.0 0.0
0.0 0.0 0.0 0.0 0.0 0.0 0.0 0.0
0.0 0.0 0.0 0.0 0.0 0.0 0.0 0.0
0.0 0.0 0.0 0.0 0.0 0.0 0.0 0.0
0.0 0.0 0.0 0.0 0.0 0.0 0.0 0.0
0.0 0.0 0.0 0.0 0.0 0.0 0.0 0.0
0.0 0.0 0.0 0.0 0.0 0.0 0.0 0.0
0.0 0.0 0.0 0.0 0.0 0.0 0.0 0.0
0.0 0.0 0.0 0.0 0.0 0.0 0.0 0.0
0.0 0.0 0.0 0.0 0.0 0.0 0.0 0.0
0.0 0.0 0.0 0.0 0.0 0.0 0.0 0.0
0.0 0.0 0.0 0.0 0.0 0.0 0.0 0.0
0.0 0.0 0.0 0.0 0.0 0.0 0.0 0.0
0.0 0.0 0.0 0.0 0.0 0.0 0.0 0.0
0.0 0.0 0.0 0.0 0.0 0.0 0.0 0.0
0.0 0.0 0.0 0.0 0.0 0.0 0.0 0.0
0.0 0.0 0.0 0.0 0.0 0.0 0.0 0.0
0.0 0.0 0.0 0.0 0.0 0.0 0.0 0.0
0.0 0.0 0.0 0.0 0.0 0.0 0.0 0.0
0.0 0.0 0.0 0.0 0.0 0.0 0.0 0.0
0.0 0.0 0.0 0.0 0.0 0.0 0.0 0.0
0.0 0.0 0.0 0.0 0.0 0.0 0.0 0.0
0.0 0.0 0.0 0.0 0.0 0.0 0.0 0.0
00000000: 8080 8080 8080 8080 8080 8080 8080 8080
00000010: 8080 8080 8080 8080 8080 8080 8080 8080
00000020: 8080 8080 8080 8080 8080 8080 8080 8080
00000030: 8080 8080 8080 8080 8080 8080 8080 8080
00000040: 8080 8080 8080 8080 8080 8080 8080 8080
00000050: 8080 8080 8080 8080 8080 8080 8080 8080
00000060: 8080 8080 8080 8080 8080 8080 8080 8080
00000070: 8080 8080 8080 8080 8080 8080 8080 8080
00000080: 8080 8080 8080 8080 8080 8080 8080 8080
00000090: 8080 8080 8080 8080 8080 8080 8080 8080
000000a0: 8080 8080 8080 8080 8080 8080 8080 8080
000000b0: 8080 8080 8080 8080 8080 8080 8080 8080
000000c0: 8080 8080 8080 8080 8080 8080 8080 8080
000000d0: 8080 8080 8080 8080 8080 8080 8080 8080
000000e0: 8080 8080 8080 8080 8080 8080 8080 8080
000000f0: 8080 8080 8080 8080 8080 8080 8080 8080
