stream_state_internal_quant.tflite (tflite, 59736 bytes, 18 tensors)

tfl.pseudo_qconst1 i1 [1, 640] scale=0.001281135 zero_point=0
00000000: b90a 2eda e5cb 98f2 f9dd 0ae1 1419 b3b1
00000010: d8ab 9abd 9222 8c30 cf13 38ff edd6 d8d1
00000020: e728 0d90 a50f 0cd5 a4c2 c5c5 e793 cabd
00000030: a9d5 23bd 1728 21c2 fdd1 b3e6 2315 b02b
00000040: bcda 2f0c d6cb ff01 d2f2 3ebe d543 b506
00000050: 0b12 b5f2 c8ba fdce 32a9 00f9 369f d9b3
00000060: b93b af0b 95cf 27ee dbc8 d504 abd1 0b35
00000070: 13d6 d2c2 ed30 a401 29b8 c39f f796 10ea
00000080: bc2c 0cfe cbb9 e216 f206 bc12 c946 1316
00000090: c7b0 eaab ee17 edaf 1311 1bff f4d7 bbb3
000000a0: d635 c6aa a716 e892 bf9f b3b9 db08 ad28
000000b0: b4db f0d5 d9e7 b2f0 b1be 1ce6 0dda 1b2e
000000c0: 01a4 1017 30c9 0628 1535 4116 d00d a5ab
000000d0: c0d8 f7d7 1a02 f6dd d787 01f6 dfb9 cad3
000000e0: d734 bdd9 cbd1 08f6 c1de e8ab f0ac 9fc9
000000f0: 26f7 04b1 9bf4 e19f fde4 080f 24a3 0b3a
-0.090960585 0.01281135 0.05893221 -0.04868313 -0.034590647 -0.06790016 -0.13323805 -0.01793589
-0.008967945 -0.044839725 0.01281135 -0.039715186 0.0256227 0.032028377 -0.09864739 -0.10120966
-0.0512454 -0.10889648 -0.13067578 -0.085836045 -0.14092486 0.04355859 -0.14861166 0.06149448
-0.06277562 0.024341565 0.07174356 -0.001281135 -0.024341565 -0.053807672 -0.0512454 -0.060213346
-0.032028377 0.0512454 0.016654756 -0.14348713 -0.11658329 0.019217025 0.01537362 -0.055088807
-0.11786442 -0.07943037 -0.07558697 -0.07558697 -0.032028377 -0.13964371 -0.06918129 -0.085836045
-0.11145875 -0.055088807 0.044839725 -0.085836045 0.029466106 0.0512454 0.042277455 -0.07943037
-0.003843405 -0.060213346 -0.09864739 -0.03330951 0.044839725 0.026903836 -0.1024908 0.055088807
-0.08711718 -0.04868313 0.060213346 0.01537362 -0.053807672 -0.06790016 -0.001281135 0.001281135
-0.05893221 -0.01793589 0.07943037 -0.08455491 -0.055088807 0.085836045 -0.09608512 0.00768681
0.014092485 0.02306043 -0.09608512 -0.01793589 -0.07174356 -0.08967945 -0.003843405 -0.064056754
0.064056754 -0.11145875 0.0 -0.008967945 0.06918129 -0.1242701 -0.049964264 -0.09864739
-0.090960585 0.07558697 -0.10377194 0.014092485 -0.13708144 -0.06277562 0.049964264 -0.02306043
-0.047401994 -0.07174356 -0.055088807 0.00512454 -0.10889648 -0.060213346 0.014092485 0.06790016
0.024341565 -0.053807672 -0.05893221 -0.07943037 -0.024341565 0.06149448 -0.11786442 0.001281135
0.052526537 -0.09224172 -0.07814924 -0.1242701 -0.011530215 -0.13580032 0.02049816 -0.02818497
-0.08711718 0.05636994 0.01537362 -0.00256227 -0.06790016 -0.090960585 -0.03843405 0.02818497
-0.01793589 0.00768681 -0.08711718 0.02306043 -0.07046243 0.08967945 0.024341565 0.02818497
-0.0730247 -0.1024908 -0.02818497 -0.10889648 -0.02306043 0.029466106 -0.024341565 -0.10377194
0.024341565 0.021779295 0.034590647 -0.001281135 -0.01537362 -0.052526537 -0.088398315 -0.09864739
-0.053807672 0.06790016 -0.07430583 -0.110177614 -0.11402102 0.02818497 -0.03074724 -0.14092486
-0.083273776 -0.1242701 -0.09864739 -0.090960585 -0.047401994 0.01024908 -0.10633421 0.0512454
-0.09736626 -0.047401994 -0.02049816 -0.055088807 -0.049964264 -0.032028377 -0.09992853 -0.02049816
-0.10120966 -0.08455491 0.03587178 -0.03330951 0.016654756 -0.04868313 0.034590647 0.05893221
0.001281135 -0.11786442 0.02049816 0.029466106 0.06149448 -0.07046243 0.00768681 0.0512454
0.026903836 0.06790016 0.083273776 0.02818497 -0.06149448 0.016654756 -0.11658329 -0.10889648
-0.08199264 -0.0512454 -0.011530215 -0.052526537 0.03330951 0.00256227 -0.01281135 -0.044839725
-0.052526537 -0.15501733 0.001281135 -0.01281135 -0.042277455 -0.090960585 -0.06918129 -0.057651076
-0.052526537 0.06661902 -0.085836045 -0.049964264 -0.06790016 -0.060213346 0.01024908 -0.01281135
-0.08071151 -0.04355859 -0.03074724 -0.10889648 -0.02049816 -0.107615344 -0.1242701 -0.07046243
0.04868313 -0.011530215 0.00512454 -0.10120966 -0.12939464 -0.01537362 -0.039715186 -0.1242701
-0.003843405 -0.03587178 0.01024908 0.019217025 0.04612086 -0.11914556 0.014092485 0.07430583

tfl.pseudo_qconst3 i1 [64, 1, 1, 64]
00000000: 1b72 21e0 072d 095e 740f cf57 08cd 7c92
00000010: d6d1 b5db b813 018d 5367 f57b cc6c 2a57
00000020: 81b8 f29f 2fbc e163 35e6 e9cb e25d b692
00000030: e8ae 9f86 780c aa78 2ccd f072 643a 7112
00000040: fa39 e6e9 f493 0fcc 593c 9734 0140 9422
00000050: bd25 7343 f5c7 bc1c be46 09eb 112d 563a
00000060: 260d 3e8f e7fc f281 bfd2 caf7 d600 0441
00000070: d127 0c94 63f8 9df6 ccfd 2aa0 dcbf d9c9
00000080: a8b7 c9fb 19b7 717b 28c3 5e58 b82c 256b
00000090: 7f63 55d8 d989 d224 509b 2b4b 4bb0 a25a
000000a0: c513 c7e3 7f09 f350 bc1f 4a1e 6546 e0f9
000000b0: 4f0f 690b 1bfd 4eec 57b7 c772 6eff cb07
000000c0: 41e8 aef7 540e e6ce 932a f519 65f0 39f9
000000d0: db1f 6653 432b e4d2 c4c6 1244 bded 274c
000000e0: c728 6afe ce71 b83f 0365 b9f7 f87f dec5
000000f0: e900 e863 472b fdad f3fc f32c 71f2 f5fa
27 114 33 -32 7 45 9 94
116 15 -49 87 8 -51 124 -110
-42 -47 -75 -37 -72 19 1 -115
83 103 -11 123 -52 108 42 87
-127 -72 -14 -97 47 -68 -31 99
53 -26 -23 -53 -30 93 -74 -110
-24 -82 -97 -122 120 12 -86 120
44 -51 -16 114 100 58 113 18
-6 57 -26 -23 -12 -109 15 -52
89 60 -105 52 1 64 -108 34
-67 37 115 67 -11 -57 -68 28
-66 70 9 -21 17 45 86 58
38 13 62 -113 -25 -4 -14 -127
-65 -46 -54 -9 -42 0 4 65
-47 39 12 -108 99 -8 -99 -10
-52 -3 42 -96 -36 -65 -39 -55
-88 -73 -55 -5 25 -73 113 123
40 -61 94 88 -72 44 37 107
127 99 85 -40 -39 -119 -46 36
80 -101 43 75 75 -80 -94 90
-59 19 -57 -29 127 9 -13 80
-68 31 74 30 101 70 -32 -7
79 15 105 11 27 -3 78 -20
87 -73 -57 114 110 -1 -53 7
65 -24 -82 -9 84 14 -26 -50
-109 42 -11 25 101 -16 57 -7
-37 31 102 83 67 43 -28 -46
-60 -58 18 68 -67 -19 39 76
-57 40 106 -2 -50 113 -72 63
3 101 -71 -9 -8 127 -34 -59
-23 0 -24 99 71 43 -3 -83
-13 -4 -13 44 113 -14 -11 -6

tfl.pseudo_qconst5 i1 [1, 23, 1, 64]
00000000: 1a10 26b5 6a7f 6de0 eb0c 412a 2d3c 206c
00000010: d10d 75c2 fedf 944f e67f 098b 2c3f 57f6
00000020: 1a8c b510 cd65 83ca 9181 023b 5616 f67f
00000030: e6fe fea6 b8c2 b7e9 ed46 3508 4350 f7cf
00000040: ccdc ade1 727d 7ffb ff23 1c56 b943 e447
00000050: 1232 29db 4010 d40f dd59 b733 2f76 edf7
00000060: 2881 cdb7 1864 8199 eaa3 ac7f 813a 3ffb
00000070: 2e26 f6e5 0507 730b 43f4 3c61 1b7f 58e7
00000080: 0bfd 2281 b943 2b59 1413 a244 2921 47ee
00000090: c64d f9af 2db8 501d b5f3 3f51 437f b68c
000000a0: 7a9b aaac ce01 c18a 18c2 ebbd ac35 1f74
000000b0: b1f3 d048 26cb a7b2 d8ea b63d 8109 0062
000000c0: 242b 400c 2e49 1f24 0d26 9e38 0a20 a425
000000d0: 29d3 29ec 2bc9 35db a73e ecaa ed78 2327
000000e0: 58ef 0693 2821 0aad 574d 0719 f07f 7f2e
000000f0: 35cb 1cb9 3fb8 ab96 d8ce c10d 966a 4e7f
26 16 38 -75 106 127 109 -32
-21 12 65 42 45 60 32 108
-47 13 117 -62 -2 -33 -108 79
-26 127 9 -117 44 63 87 -10
26 -116 -75 16 -51 101 -125 -54
-111 -127 2 59 86 22 -10 127
-26 -2 -2 -90 -72 -62 -73 -23
-19 70 53 8 67 80 -9 -49
-52 -36 -83 -31 114 125 127 -5
-1 35 28 86 -71 67 -28 71
18 50 41 -37 64 16 -44 15
-35 89 -73 51 47 118 -19 -9
40 -127 -51 -73 24 100 -127 -103
-22 -93 -84 127 -127 58 63 -5
46 38 -10 -27 5 7 115 11
67 -12 60 97 27 127 88 -25
11 -3 34 -127 -71 67 43 89
20 19 -94 68 41 33 71 -18
-58 77 -7 -81 45 -72 80 29
-75 -13 63 81 67 127 -74 -116
122 -101 -86 -84 -50 1 -63 -118
24 -62 -21 -67 -84 53 31 116
-79 -13 -48 72 38 -53 -89 -78
-40 -22 -74 61 -127 9 0 98
36 43 64 12 46 73 31 36
13 38 -98 56 10 32 -92 37
41 -45 41 -20 43 -55 53 -37
-89 62 -20 -86 -19 120 35 39
88 -17 6 -109 40 33 10 -83
87 77 7 25 -16 127 127 46
53 -53 28 -71 63 -72 -85 -106
-40 -50 -63 13 -106 106 78 127

tfl.pseudo_qconst7 i1 [64, 1, 1, 64]
00000000: 4ff8 2023 389f 026d 3d11 a751 ed1b 43a9
00000010: 68e5 1fdb 2d4d 1703 fc21 4cec 164d 04a8
00000020: 69ce fd07 dcc6 d417 5c59 d256 c25b d709
00000030: 40dc b00f 3f30 3bc5 e248 fe81 d4e4 41ba
00000040: 6837 e308 13cb a551 95ee 264c e9fc 3818
00000050: 20c3 02e4 f282 1a1a 5352 18da 4349 92f8
00000060: f02f b8e6 951a 92ce 04f2 4838 adac 0e29
00000070: 4317 f061 c507 4996 1b50 7f5b d7f3 ae1d
00000080: d02a a99e ac25 0120 dafa 281d 6957 11ad
00000090: 4dab 123f ce25 f72a b5f9 1d5d 1316 0521
000000a0: d2e3 e12c 0a81 35af bd2f dedd 2858 38f9
000000b0: 27b9 0b18 a8cc 67e8 d55b a12b 60d5 5aa9
000000c0: f525 be07 3850 b459 e558 bbbf bc96 18e7
000000d0: bde6 cd18 5b63 bf29 f752 fac3 7e5a a4a9
000000e0: e44b ddeb 9c46 e8f8 dbbb c611 1353 75ec
000000f0: d7b1 b917 400b 1e37 a88d bdbf d622 7ffd
79 -8 32 35 56 -97 2 109
61 17 -89 81 -19 27 67 -87
104 -27 31 -37 45 77 23 3
-4 33 76 -20 22 77 4 -88
105 -50 -3 7 -36 -58 -44 23
92 89 -46 86 -62 91 -41 9
64 -36 -80 15 63 48 59 -59
-30 72 -2 -127 -44 -28 65 -70
104 55 -29 8 19 -53 -91 81
-107 -18 38 76 -23 -4 56 24
32 -61 2 -28 -14 -126 26 26
83 82 24 -38 67 73 -110 -8
-16 47 -72 -26 -107 26 -110 -50
4 -14 72 56 -83 -84 14 41
67 23 -16 97 -59 7 73 -106
27 80 127 91 -41 -13 -82 29
-48 42 -87 -98 -84 37 1 32
-38 -6 40 29 105 87 17 -83
77 -85 18 63 -50 37 -9 42
-75 -7 29 93 19 22 5 33
-46 -29 -31 44 10 -127 53 -81
-67 47 -34 -35 40 88 56 -7
39 -71 11 24 -88 -52 103 -24
-43 91 -95 43 96 -43 90 -87
-11 37 -66 7 56 80 -76 89
-27 88 -69 -65 -68 -106 24 -25
-67 -26 -51 24 91 99 -65 41
-9 82 -6 -61 126 90 -92 -87
-28 75 -35 -21 -100 70 -24 -8
-37 -69 -58 17 19 83 117 -20
-41 -79 -71 23 64 11 30 55
-88 -115 -67 -65 -42 34 127 -3

tfl.pseudo_qconst9 i1 [1, 15, 1, 32]
00000000: e6a2 b87f 4839 7d81 f0a6 e8c9 7f07 b220
00000010: 320d 59a2 d441 e650 8f15 8684 c038 1546
00000020: ff06 a235 172e 99ad 9d51 627f e7db 39b7
00000030: dc01 4e82 b136 047f 8a95 e982 351a 5137
00000040: 15dd a240 b12c 4a0a 90e6 2e18 cf26 33d6
00000050: aafd 3581 e710 6ef9 4916 96a6 49f2 c03e
00000060: d69a 3315 0042 9ec1 9eb1 fbeb 9e81 2c01
00000070: e604 b0e9 a327 cac4 90ef ed9c 414d 4c3c
00000080: 13dc 4cb1 813b bcff 011b e1a6 b721 493a
00000090: 1138 480d 3f81 e6f4 f715 e613 0d2c 2d12
000000a0: 5118 6b3b 252c 7ff5 0f38 9207 1ef0 0101
000000b0: 407f d1cb 17cc ba03 29d9 1181 1cc1 4732
000000c0: 0b2b 81c1 6f2c 64ed c44e abf8 0231 b0b9
000000d0: 8f78 c655 7202 d4fe 88ce 245a 2e60 3571
000000e0: c802 2c00 6fdd 694d 81a4 c88f 79c0 e6d7
000000f0: 28e3 782f 7fa6 3a94 8145 656e 9159 13ec
-26 -94 -72 127 72 57 125 -127
-16 -90 -24 -55 127 7 -78 32
50 13 89 -94 -44 65 -26 80
-113 21 -122 -124 -64 56 21 70
-1 6 -94 53 23 46 -103 -83
-99 81 98 127 -25 -37 57 -73
-36 1 78 -126 -79 54 4 127
-118 -107 -23 -126 53 26 81 55
21 -35 -94 64 -79 44 74 10
-112 -26 46 24 -49 38 51 -42
-86 -3 53 -127 -25 16 110 -7
73 22 -106 -90 73 -14 -64 62
-42 -102 51 21 0 66 -98 -63
-98 -79 -5 -21 -98 -127 44 1
-26 4 -80 -23 -93 39 -54 -60
-112 -17 -19 -100 65 77 76 60
19 -36 76 -79 -127 59 -68 -1
1 27 -31 -90 -73 33 73 58
17 56 72 13 63 -127 -26 -12
-9 21 -26 19 13 44 45 18
81 24 107 59 37 44 127 -11
15 56 -110 7 30 -16 1 1
64 127 -47 -53 23 -52 -70 3
41 -39 17 -127 28 -63 71 50
11 43 -127 -63 111 44 100 -19
-60 78 -85 -8 2 49 -80 -71
-113 120 -58 85 114 2 -44 -2
-120 -50 36 90 46 96 53 113
-56 2 44 0 111 -35 105 77
-127 -92 -56 -113 121 -64 -26 -41
40 -29 120 47 127 -90 58 -108
-127 69 101 110 -111 89 19 -20

tfl.pseudo_qconst11 i1 [1, 9, 1, 32]
00000000: 3630 5265 8a63 e637 bbd0 d55b ab0f d6ee
00000010: 4032 7f3a 8134 b96f 35dd 362d 64d3 dab8
00000020: 8c6d a851 bfac 23bc 813c b3d0 534a 9a46
00000030: 2124 3d7f d8bf 8918 092c 5c1c 2143 8a55
00000040: 1efe 8145 0c19 a837 e281 2b31 7f48 1cf0
00000050: 815e ce50 97a7 1ffe fc3c fc93 3981 b08f
00000060: b77f cc07 44d1 db6c e68a e54a c304 56fd
00000070: 3ac8 2b8a c444 587f 137f 140f c6a8 611f
00000080: 7fcc 3b1f 7659 fac8 f51a 8132 d810 9f2a
00000090: 5611 6f90 1d4b 7f17 5d26 36f2 3f4d 7f03
000000a0: fee3 3381 3b2f 93ad b6b8 10ee 1a7f 81cc
000000b0: c3dc 5a63 25ed 0eb6 466e a8b4 7faf 0d3b
000000c0: ffbb 444b ddd6 3581 60f5 26ec a565 6b06
000000d0: e8a4 e4c9 31f4 64c3 581c edb1 45f5 c651
000000e0: 7ede 3f8f 1181 a625 b23b 05a6 b0c6 ac4c
000000f0: 5981 a005 891f c252 134a 0c81 209c 2c7f
54 48 82 101 -118 99 -26 55
-69 -48 -43 91 -85 15 -42 -18
64 50 127 58 -127 52 -71 111
53 -35 54 45 100 -45 -38 -72
-116 109 -88 81 -65 -84 35 -68
-127 60 -77 -48 83 74 -102 70
33 36 61 127 -40 -65 -119 24
9 44 92 28 33 67 -118 85
30 -2 -127 69 12 25 -88 55
-30 -127 43 49 127 72 28 -16
-127 94 -50 80 -105 -89 31 -2
-4 60 -4 -109 57 -127 -80 -113
-73 127 -52 7 68 -47 -37 108
-26 -118 -27 74 -61 4 86 -3
58 -56 43 -118 -60 68 88 127
19 127 20 15 -58 -88 97 31
127 -52 59 31 118 89 -6 -56
-11 26 -127 50 -40 16 -97 42
86 17 111 -112 29 75 127 23
93 38 54 -14 63 77 127 3
-2 -29 51 -127 59 47 -109 -83
-74 -72 16 -18 26 127 -127 -52
-61 -36 90 99 37 -19 14 -74
70 110 -88 -76 127 -81 13 59
-1 -69 68 75 -35 -42 53 -127
96 -11 38 -20 -91 101 107 6
-24 -92 -28 -55 49 -12 100 -61
88 28 -19 -79 69 -11 -58 81
126 -34 63 -113 17 -127 -90 37
-78 59 5 -90 -80 -58 -84 76
89 -127 -96 5 -119 31 -62 82
19 74 12 -127 32 -100 44 127

tfl.pseudo_qconst13 i1 [64, 1, 1, 64]
00000000: 2032 d94b f7d2 3657 02d2 2201 ef4c de2e
00000010: 3c1f e2ad d9f3 49ab 4900 a277 b3a8 4851
00000020: ff9c 9e52 7106 c4b6 0d3f e4b2 e675 a145
00000030: cbdc 37e9 ce68 c5e4 2fd3 bae4 f518 b281
00000040: e6ec 6a14 2a5f 25f9 53f6 074d bb05 bb43
00000050: c7f5 4dcb 0f0d f15c 5525 ec56 0414 c142
00000060: 1c9b d3e3 3541 d19b f351 c57f b5ab 0846
00000070: ea5c f6cf 4f02 460e ecfa 0e24 02f2 c8f5
00000080: 159c 7f4b d703 f63c f3a4 48ce f31b 74aa
00000090: 9e35 eaff b0b6 d817 480a f1be ed50 a89f
000000a0: 4595 5751 2450 5b98 2dd2 fb08 f717 54da
000000b0: 16cd a4cc 17bb 14ba 0a33 26f7 2cdd f11c
000000c0: f29a 03db b59a 1de3 0230 ca1c 8a96 e8ff
000000d0: f687 8e07 47b9 b9f1 386b 1981 e2e6 22b5
000000e0: d9cd 0f32 45f0 eac0 75b7 91f0 504f 06d6
000000f0: 185f 2d11 dd74 dbfe 6656 ee17 b516 9bb2
32 50 -39 75 -9 -46 54 87
2 -46 34 1 -17 76 -34 46
60 31 -30 -83 -39 -13 73 -85
73 0 -94 119 -77 -88 72 81
-1 -100 -98 82 113 6 -60 -74
13 63 -28 -78 -26 117 -95 69
-53 -36 55 -23 -50 104 -59 -28
47 -45 -70 -28 -11 24 -78 -127
-26 -20 106 20 42 95 37 -7
83 -10 7 77 -69 5 -69 67
-57 -11 77 -53 15 13 -15 92
85 37 -20 86 4 20 -63 66
28 -101 -45 -29 53 65 -47 -101
-13 81 -59 127 -75 -85 8 70
-22 92 -10 -49 79 2 70 14
-20 -6 14 36 2 -14 -56 -11
21 -100 127 75 -41 3 -10 60
-13 -92 72 -50 -13 27 116 -86
-98 53 -22 -1 -80 -74 -40 23
72 10 -15 -66 -19 80 -88 -97
69 -107 87 81 36 80 91 -104
45 -46 -5 8 -9 23 84 -38
22 -51 -92 -52 23 -69 20 -70
10 51 38 -9 44 -35 -15 28
-14 -102 3 -37 -75 -102 29 -29
2 48 -54 28 -118 -106 -24 -1
-10 -121 -114 7 71 -71 -71 -15
56 107 25 -127 -30 -26 34 -75
-39 -51 15 50 69 -16 -22 -64
117 -73 -111 -16 80 79 6 -42
24 95 45 17 -35 116 -37 -2
102 86 -18 23 -75 22 -101 -78

tfl.pseudo_qconst15 i1 [1, 11, 1, 32]
00000000: df41 9173 13bc 0f0a 7fe2 f422 81ba 000b
00000010: 1e5b e26b f871 ace1 cf52 b3d9 e281 dac2
00000020: 2d9d 7f7f 7c13 65dc c9e3 f12a 1ce2 417f
00000030: c1fb 1d23 1737 83b1 c8ee dfc5 e2e7 ed0c
00000040: d54b e8d5 814e e6ba f96f 0855 8347 d86f
00000050: 697f 27ee 4de2 6d21 4b4f acf1 f47a cf31
00000060: 6894 d0be 1490 a488 493b 78c0 983a 2797
00000070: aa76 579f be1b cd43 7f08 4b81 526e 0253
00000080: 2b5b 97d0 095f 03b5 56c4 b5e8 0639 7fb3
00000090: 20f9 34a4 4bda a081 6792 7729 c418 7681
000000a0: e962 0858 649b b120 43ff 81c3 6981 252b
000000b0: 5b63 7f71 4286 d0f7 3693 0ddb f76c 04b9
000000c0: eb11 6168 6b01 ff08 2dce 8699 2976 04ee
000000d0: f02d 2c4f 81cd 0d11 b7e8 9e1c 7fdf 9055
000000e0: 7f23 d93d a246 f2cf ae51 13d4 fde3 bbb9
000000f0: 58db 50d5 85d0 812c 3a62 3809 d62a f7e1
-33 65 -111 115 19 -68 15 10
127 -30 -12 34 -127 -70 0 11
30 91 -30 107 -8 113 -84 -31
-49 82 -77 -39 -30 -127 -38 -62
45 -99 127 127 124 19 101 -36
-55 -29 -15 42 28 -30 65 127
-63 -5 29 35 23 55 -125 -79
-56 -18 -33 -59 -30 -25 -19 12
-43 75 -24 -43 -127 78 -26 -70
-7 111 8 85 -125 71 -40 111
105 127 39 -18 77 -30 109 33
75 79 -84 -15 -12 122 -49 49
104 -108 -48 -66 20 -112 -92 -120
73 59 120 -64 -104 58 39 -105
-86 118 87 -97 -66 27 -51 67
127 8 75 -127 82 110 2 83
43 91 -105 -48 9 95 3 -75
86 -60 -75 -24 6 57 127 -77
32 -7 52 -92 75 -38 -96 -127
103 -110 119 41 -60 24 118 -127
-23 98 8 88 100 -101 -79 32
67 -1 -127 -61 105 -127 37 43
91 99 127 113 66 -122 -48 -9
54 -109 13 -37 -9 108 4 -71
-21 17 97 104 107 1 -1 8
45 -50 -122 -103 41 118 4 -18
-16 45 44 79 -127 -51 13 17
-73 -24 -98 28 127 -33 -112 85
127 35 -39 61 -94 70 -14 -49
-82 81 19 -44 -3 -29 -69 -71
88 -37 80 -43 -123 -48 -127 44
58 98 56 9 -42 42 -9 -31

tfl.pseudo_qconst17 i1 [1, 7, 1, 32]
00000000: 64d8 bdc5 11ca 8148 ff0d eb4f 6466 02c4
00000010: 897f 5f65 59c7 879d 8131 bc47 abab 5edd
00000020: 4fca cda5 6d81 3881 9f19 aaaf a8d4 38e1
00000030: 5cbc c681 e67f 485f 058e 4360 f733 0a71
00000040: c2c4 9e64 7f13 ffad b781 14c8 5ec0 b4dc
00000050: 3bfa 5a6a d13e 6100 77f8 a27f 3681 4581
00000060: 4177 ef7f 70af 44f5 339b bb2a 76d0 0381
00000070: 78eb 8134 a1b8 6825 6be4 81fe 0ec5 813f
00000080: 9721 7f14 47bf f62a 3f75 6008 7f7f 5609
00000090: a8b7 1252 022e 75a9 ea7f fb6a fce9 c782
000000a0: 817f cbb8 b3bd 5c99 81fb 9581 3cff c259
000000b0: debd 123a 810b ec9d 58e7 a9a1 d6cd fa87
000000c0: 4574 2c45 be38 4ebe 11ac 8198 cdf8 8185
000000d0: 7fa3 0ec0 5554 7f7f 40f0 8c4f 7f61 31c2
100 -40 -67 -59 17 -54 -127 72
-1 13 -21 79 100 102 2 -60
-119 127 95 101 89 -57 -121 -99
-127 49 -68 71 -85 -85 94 -35
79 -54 -51 -91 109 -127 56 -127
-97 25 -86 -81 -88 -44 56 -31
92 -68 -58 -127 -26 127 72 95
5 -114 67 96 -9 51 10 113
-62 -60 -98 100 127 19 -1 -83
-73 -127 20 -56 94 -64 -76 -36
59 -6 90 106 -47 62 97 0
119 -8 -94 127 54 -127 69 -127
65 119 -17 127 112 -81 68 -11
51 -101 -69 42 118 -48 3 -127
120 -21 -127 52 -95 -72 104 37
107 -28 -127 -2 14 -59 -127 63
-105 33 127 20 71 -65 -10 42
63 117 96 8 127 127 86 9
-88 -73 18 82 2 46 117 -87
-22 127 -5 106 -4 -23 -57 -126
-127 127 -53 -72 -77 -67 92 -103
-127 -5 -107 -127 60 -1 -62 89
-34 -67 18 58 -127 11 -20 -99
88 -25 -87 -95 -42 -51 -6 -121
69 116 44 69 -66 56 78 -66
17 -84 -127 -104 -51 -8 -127 -123
127 -93 14 -64 85 84 127 127
64 -16 -116 79 127 97 49 -62

tfl.pseudo_qconst19 i1 [64, 1, 1, 32]
00000000: f24c d0e4 fb93 7396 9e29 2337 3ee4 38ed
00000010: 1c4c d630 1d9e a652 2087 7dd5 e481 d095
00000020: dd4d 33da ec04 04d2 1c6f f6b8 4239 5330
00000030: f6b3 5a81 31f6 5f12 ced7 b1d9 04ed 4521
00000040: 0b17 e5a8 b2df ee5f 6b37 e7a7 8b97 54b0
00000050: d8ca 7f3b 0f42 3f71 44f0 62f4 2844 f510
00000060: 9230 bf13 d8d8 a78b c281 0a1e ecda 45a3
00000070: c4c2 d659 b25b b924 10ba e7f7 3e79 31b8
00000080: 64a8 fdd1 6d52 368f 1e8e 7f0a e762 d9d4
00000090: 9f38 dcc9 5a15 4c45 3e0a fbf4 34d9 0fdc
000000a0: 083c 4d73 6d93 745f 4718 2cd8 a60d f3af
000000b0: e7f4 6611 7f75 b74e 53e6 45f5 a713 152e
000000c0: 95bd ba2a ee29 10b0 0d0e 3945 9743 a832
000000d0: b0bd 525c 0023 ef7f 17a8 a9ec f55b 5c5f
000000e0: 52de 06e0 c909 a89f 58c0 4db0 97d5 010e
000000f0: 3581 aac1 d5fa e765 2f1d 99e3 2610 a156
-14 76 -48 -28 -5 -109 115 -106
-98 41 35 55 62 -28 56 -19
28 76 -42 48 29 -98 -90 82
32 -121 125 -43 -28 -127 -48 -107
-35 77 51 -38 -20 4 4 -46
28 111 -10 -72 66 57 83 48
-10 -77 90 -127 49 -10 95 18
-50 -41 -79 -39 4 -19 69 33
11 23 -27 -88 -78 -33 -18 95
107 55 -25 -89 -117 -105 84 -80
-40 -54 127 59 15 66 63 113
68 -16 98 -12 40 68 -11 16
-110 48 -65 19 -40 -40 -89 -117
-62 -127 10 30 -20 -38 69 -93
-60 -62 -42 89 -78 91 -71 36
16 -70 -25 -9 62 121 49 -72
100 -88 -3 -47 109 82 54 -113
30 -114 127 10 -25 98 -39 -44
-97 56 -36 -55 90 21 76 69
62 10 -5 -12 52 -39 15 -36
8 60 77 115 109 -109 116 95
71 24 44 -40 -90 13 -13 -81
-25 -12 102 17 127 117 -73 78
83 -26 69 -11 -89 19 21 46
-107 -67 -70 42 -18 41 16 -80
13 14 57 69 -105 67 -88 50
-80 -67 82 92 0 35 -17 127
23 -88 -87 -20 -11 91 92 95
82 -34 6 -32 -55 9 -88 -97
88 -64 77 -80 -105 -43 1 14
53 -127 -86 -63 -43 -6 -25 101
47 29 -103 -29 38 16 -95 86

tfl.pseudo_qconst21 i1 [1, 5, 1, 32]
00000000: c773 46b2 f481 f605 d424 c0a1 7fa0 e279
00000010: 7f6f f97d ac0b 5352 7fde 2edf e617 a77f
00000020: 7f52 4a23 62c0 75db 4822 8136 ef86 7f9e
00000030: 93d6 6443 81b9 7f12 c681 8191 2081 7faa
00000040: 4fb5 cd02 bff8 ff81 468f d6dd 9e81 92b2
00000050: 1e84 527f 9b7b 0e73 941f 8481 7f1a cec9
00000060: 5924 03cd 8171 2a58 aebf f9f0 991e 725e
00000070: 507f 7f38 da7f e281 a5a2 74dd 006c ae38
00000080: 0e7f 8181 cc5d 7fe3 817f f47f 7b74 4f81
00000090: d901 13a1 aff2 58b8 6899 7441 f9f5 a8c1
-57 115 70 -78 -12 -127 -10 5
-44 36 -64 -95 127 -96 -30 121
127 111 -7 125 -84 11 83 82
127 -34 46 -33 -26 23 -89 127
127 82 74 35 98 -64 117 -37
72 34 -127 54 -17 -122 127 -98
-109 -42 100 67 -127 -71 127 18
-58 -127 -127 -111 32 -127 127 -86
79 -75 -51 2 -65 -8 -1 -127
70 -113 -42 -35 -98 -127 -110 -78
30 -124 82 127 -101 123 14 115
-108 31 -124 -127 127 26 -50 -55
89 36 3 -51 -127 113 42 88
-82 -65 -7 -16 -103 30 114 94
80 127 127 56 -38 127 -30 -127
-91 -94 116 -35 0 108 -82 56
14 127 -127 -127 -52 93 127 -29
-127 127 -12 127 123 116 79 -127
-39 1 19 -95 -81 -14 88 -72
104 -103 116 65 -7 -11 -88 -63

tfl.pseudo_qconst23 i1 [32, 5, 1, 40]
00000000: 12cb b5cc fbec 2dd6 d741 d444 3312 d2e7
00000010: c3eb 05c3 1b2a 1cf5 cb13 c209 c310 c235
00000020: aff4 812b c9dc e5d9 f8f8 29eb d721 3f38
00000030: eadc 2e01 f30d 3143 ee12 d0c0 0308 e2df
00000040: 0d1d fb3b b7d8 0915 ebe3 bee7 cc3f deeb
00000050: c031 cc09 e05d 0f23 f50c dff3 ea4c 223c
00000060: 3c4f 2201 c7e5 e8f9 cde1 0a57 d6f9 3fdd
00000070: 112f b8df fe11 fbbc ac0e ced8 1458 e6db
00000080: 1bcf 1850 e51a 0a4b 2532 3fde 2912 d4de
00000090: d12b ce34 fbfa 360b ea22 9a17 da2a f3c5
000000a0: f707 1948 de47 473d 3f2a ee07 4611 cd1d
000000b0: 36fb cc0d 16c2 ba25 2d27 3c4c f41b 3a46
000000c0: bb1f bfa4 f140 0806 ad26 c450 bae5 2212
000000d0: 113d 1750 33e2 0050 0702 a448 0f22 f1f5
000000e0: 1c53 ceee 11c4 ba03 d625 0a41 4320 275f
000000f0: a552 e4ec ec54 3a3a 18d5 aa1a ae2e 3553
18 -53 -75 -52 -5 -20 45 -42
-41 65 -44 68 51 18 -46 -25
-61 -21 5 -61 27 42 28 -11
-53 19 -62 9 -61 16 -62 53
-81 -12 -127 43 -55 -36 -27 -39
-8 -8 41 -21 -41 33 63 56
-22 -36 46 1 -13 13 49 67
-18 18 -48 -64 3 8 -30 -33
13 29 -5 59 -73 -40 9 21
-21 -29 -66 -25 -52 63 -34 -21
-64 49 -52 9 -32 93 15 35
-11 12 -33 -13 -22 76 34 60
60 79 34 1 -57 -27 -24 -7
-51 -31 10 87 -42 -7 63 -35
17 47 -72 -33 -2 17 -5 -68
-84 14 -50 -40 20 88 -26 -37
27 -49 24 80 -27 26 10 75
37 50 63 -34 41 18 -44 -34
-47 43 -50 52 -5 -6 54 11
-22 34 -102 23 -38 42 -13 -59
-9 7 25 72 -34 71 71 61
63 42 -18 7 70 17 -51 29
54 -5 -52 13 22 -62 -70 37
45 39 60 76 -12 27 58 70
-69 31 -65 -92 -15 64 8 6
-83 38 -60 80 -70 -27 34 18
17 61 23 80 51 -30 0 80
7 2 -92 72 15 34 -15 -11
28 83 -50 -18 17 -60 -70 3
-42 37 10 65 67 32 39 95
-91 82 -28 -20 -20 84 58 58
24 -43 -86 26 -82 46 53 83

tfl.pseudo_qconst24 i1 [1, 14, 1, 64] scale=0.030515905 zero_point=-128
00000000: 8080 8080 8080 8080 8080 8080 8080 8080
00000010: 8080 8080 8080 8080 8080 8080 8080 8080
00000020: 8080 8080 8080 8080 8080 8080 8080 8080
00000030: 8080 8080 8080 8080 8080 8080 8080 8080
00000040: 8080 8080 8080 8080 8080 8080 8080 8080
00000050: 8080 8080 8080 8080 8080 8080 8080 8080
00000060: 8080 8080 8080 8080 8080 8080 8080 8080
00000070: 8080 8080 8080 8080 8080 8080 8080 8080
00000080: 8080 8080 8080 8080 8080 8080 8080 8080
00000090: 8080 8080 8080 8080 8080 8080 8080 8080
000000a0: 8080 8080 8080 8080 8080 8080 8080 8080
000000b0: 8080 8080 8080 8080 8080 8080 8080 8080
000000c0: 8080 8080 8080 8080 8080 8080 8080 8080
000000d0: 8080 8080 8080 8080 8080 8080 8080 8080
000000e0: 8080 8080 8080 8080 8080 8080 8080 8080
000000f0: 8080 8080 8080 8080 8080 8080 8080 8080
0.0 0.0 0.0 0.0 0.0 0.0 0.0 0.0
0.0 0.0 0.0 0.0 0.0 0.0 0.0 0.0
0.0 0.0 0.0 0.0 0.0 0.0 0.0 0.0
0.0 0.0 0.0 0.0 0.0 0.0 0.0 0.0
0.0 0.0 0.0 0.0 0.0 0.0 0.0 0.0
0.0 0.0 0.0 0.0 0.0 0.0 0.0 0.0
0.0 0.0 0.0 0.0 0.0 0.0 0.0 0.0
0.0 0.0 0.0 0.0 0.0 0.0 0.0 0.0
0.0 0.0 0.0 0.0 0.0 0.0 0.0 0.0
0.0 0.0 0.0 0.0 0.0 0.0 0.0 0.0
0.0 0.0 0.0 0.0 0.0 0.0 0.0 0.0
0.0 0.0 0.0 0.0 0.0 0.0 0.0 0.0
0.0 0.0 0.0 0.0 0.0 0.0 0.0 0.0
0.0 0.0 0.0 0.0 0.0 0.0 0.0 0.0
0.0 0.0 0.0 0.0 0.0 0.0 0.0 0.0
0.0 0.0 0.0 0.0 0.0 0.0 0.0 0.0
0.0 0.0 0.0 0.0 0.0 0.0 0.0 0.0
0.0 0.0 0.0 0.0 0.0 0.0 0.0 0.0
0.0 0.0 0.0 0.0 0.0 0.0 0.0 0.0
0.0 0.0 0.0 0.0 0.0 0.0 0.0 0.0
0.0 0.0 0.0 0.0 0.0 0.0 0.0 0.0
0.0 0.0 0.0 0.0 0.0 0.0 0.0 0.0
0.0 0.0 0.0 0.0 0.0 0.0 0.0 0.0
0.0 0.0 0.0 0.0 0.0 0.0 0.0 0.0
0.0 0.0 0.0 0.0 0.0 0.0 0.0 0.0
0.0 0.0 0.0 0.0 0.0 0.0 0.0 0.0
0.0 0.0 0.0 0.0 0.0 0.0 0.0 0.0
0.0 0.0 0.0 0.0 0.0 0.0 0.0 0.0
0.0 0.0 0.0 0.0 0.0 0.0 0.0 0.0
0.0 0.0 0.0 0.0 0.0 0.0 0.0 0.0
0.0 0.0 0.0 0.0 0.0 0.0 0.0 0.0
0.0 0.0 0.0 0.0 0.0 0.0 0.0 0.0

tfl.pseudo_qconst25 i1 [1, 10, 1, 64] scale=0.03359989 zero_point=-128
00000000: 8080 8080 8080 8080 8080 8080 8080 8080
00000010: 8080 8080 8080 8080 8080 8080 8080 8080
00000020: 8080 8080 8080 8080 8080 8080 8080 8080
00000030: 8080 8080 8080 8080 8080 8080 8080 8080
00000040: 8080 8080 8080 8080 8080 8080 8080 8080
00000050: 8080 8080 8080 8080 8080 8080 8080 8080
00000060: 8080 8080 8080 8080 8080 8080 8080 8080
00000070: 8080 8080 8080 8080 8080 8080 8080 8080
00000080: 8080 8080 8080 8080 8080 8080 8080 8080
00000090: 8080 8080 8080 8080 8080 8080 8080 8080
000000a0: 8080 8080 8080 8080 8080 8080 8080 8080
000000b0: 8080 8080 8080 8080 8080 8080 8080 8080
000000c0: 8080 8080 8080 8080 8080 8080 8080 8080
000000d0: 8080 8080 8080 8080 8080 8080 8080 8080
000000e0: 8080 8080 8080 8080 8080 8080 8080 8080
000000f0: 8080 8080 8080 8080 8080 8080 8080 8080
0.0 0.0 0.0 0.0 0.0 0.0 0.0 0.0
0.0 0.0 0.0 0.0 0.0 0.0 0.0 0.0
0.0 0.0 0.0 0.0 0.0 0.0 0.0 0.0
0.0 0.0 0.0 0.0 0.0 0.0 0.0 0.0
0.0 0.0 0.0 0.0 0.0 0.0 0.0 0.0
0.0 0.0 0.0 0.0 0.0 0.0 0.0 0.0
0.0 0.0 0.0 0.0 0.0 0.0 0.0 0.0
0.0 0.0 0.0 0.0 0.0 0.0 0.0 0.0
0.0 0.0 0.0 0.0 0.0 0.0 0.0 0.0
0.0 0.0 0.0 0.0 0.0 0.0 0.0 0.0
0.0 0.0 0.0 0.0 0.0 0.0 0.0 0.0
0.0 0.0 0.0 0.0 0.0 0.0 0.0 0.0
0.0 0.0 0.0 0.0 0.0 0.0 0.0 0.0
0.0 0.0 0.0 0.0 0.0 0.0 0.0 0.0
0.0 0.0 0.0 0.0 0.0 0.0 0.0 0.0
0.0 0.0 0.0 0.0 0.0 0.0 0.0 0.0
0.0 0.0 0.0 0.0 0.0 0.0 0.0 0.0
0.0 0.0 0.0 0.0 0.0 0.0 0.0 0.0
0.0 0.0 0.0 0.0 0.0 0.0 0.0 0.0
0.0 0.0 0.0 0.0 0.0 0.0 0.0 0.0
0.0 0.0 0.0 0.0 0.0 0.0 0.0 0.0
0.0 0.0 0.0 0.0 0.0 0.0 0.0 0.0
0.0 0.0 0.0 0.0 0.0 0.0 0.0 0.0
0.0 0.0 0.0 0.0 0.0 0.0 0.0 0.0
0.0 0.0 0.0 0.0 0.0 0.0 0.0 0.0
0.0 0.0 0.0 0.0 0.0 0.0 0.0 0.0
0.0 0.0 0.0 0.0 0.0 0.0 0.0 0.0
0.0 0.0 0.0 0.0 0.0 0.0 0.0 0.0
0.0 0.0 0.0 0.0 0.0 0.0 0.0 0.0
0.0 0.0 0.0 0.0 0.0 0.0 0.0 0.0
0.0 0.0 0.0 0.0 0.0 0.0 0.0 0.0
0.0 0.0 0.0 0.0 0.0 0.0 0.0 0.0

tfl.pseudo_qconst26 i1 [1, 4, 1, 32] scale=0.3497915 zero_point=-128
00000000: 8080 8080 8080 8080 8080 8080 8080 8080
00000010: 8080 8080 8080 8080 8080 8080 8080 8080
00000020: 8080 8080 8080 8080 8080 8080 8080 8080
00000030: 8080 8080 8080 8080 8080 8080 8080 8080
00000040: 8080 8080 8080 8080 8080 8080 8080 8080
00000050: 8080 8080 8080 8080 8080 8080 8080 8080
00000060: 8080 8080 8080 8080 8080 8080 8080 8080
00000070: 8080 8080 8080 8080 8080 8080 8080 8080
0.0 0.0 0.0 0.0 0.0 0.0 0.0 0.0
0.0 0.0 0.0 0.0 0.0 0.0 0.0 0.0
0.0 0.0 0.0 0.0 0.0 0.0 0.0 0.0
0.0 0.0 0.0 0.0 0.0 0.0 0.0 0.0
0.0 0.0 0.0 0.0 0.0 0.0 0.0 0.0
0.0 0.0 0.0 0.0 0.0 0.0 0.0 0.0
0.0 0.0 0.0 0.0 0.0 0.0 0.0 0.0
0.0 0.0 0.0 0.0 0.0 0.0 0.0 0.0
0.0 0.0 0.0 0.0 0.0 0.0 0.0 0.0
0.0 0.0 0.0 0.0 0.0 0.0 0.0 0.0
0.0 0.0 0.0 0.0 0.0 0.0 0.0 0.0
0.0 0.0 0.0 0.0 0.0 0.0 0.0 0.0
0.0 0.0 0.0 0.0 0.0 0.0 0.0 0.0
0.0 0.0 0.0 0.0 0.0 0.0 0.0 0.0
0.0 0.0 0.0 0.0 0.0 0.0 0.0 0.0
0.0 0.0 0.0 0.0 0.0 0.0 0.0 0.0

tfl.pseudo_qconst27 i1 [1, 1, 1, 40] scale=0.100796565 zero_point=-128
00000000: 8080 8080 8080 8080 8080 8080 8080 8080
00000010: 8080 8080 8080 8080 8080 8080 8080 8080
00000020: 8080 8080 8080 8080
0.0 0.0 0.0 0.0 0.0 0.0 0.0 0.0
0.0 0.0 0.0 0.0 0.0 0.0 0.0 0.0
0.0 0.0 0.0 0.0 0.0 0.0 0.0 0.0
0.0 0.0 0.0 0.0 0.0 0.0 0.0 0.0
0.0 0.0 0.0 0.0 0.0 0.0 0.0 0.0

tfl.pseudo_qconst28 i1 [1, 9, 1, 64] scale=0.031016488 zero_point=-128
00000000: 8080 8080 8080 8080 8080 8080 8080 8080
00000010: 8080 8080 8080 8080 8080 8080 8080 8080
00000020: 8080 8080 8080 8080 8080 8080 8080 8080
00000030: 8080 8080 8080 8080 8080 8080 8080 8080
00000040: 8080 8080 8080 8080 8080 8080 8080 8080
00000050: 8080 8080 8080 8080 8080 8080 8080 8080
00000060: 8080 8080 8080 8080 8080 8080 8080 8080
00000070: 8080 8080 8080 8080 8080 8080 8080 8080
00000080: 8080 8080 8080 8080 8080 8080 8080 8080
00000090: 8080 8080 8080 8080 8080 8080 8080 8080
000000a0: 8080 8080 8080 8080 8080 8080 8080 8080
000000b0: 8080 8080 8080 8080 8080 8080 8080 8080
000000c0: 8080 8080 8080 8080 8080 8080 8080 8080
000000d0: 8080 8080 8080 8080 8080 8080 8080 8080
000000e0: 8080 8080 8080 8080 8080 8080 8080 8080
000000f0: 8080 8080 8080 8080 8080 8080 8080 8080
0.0 0.0 0.0 0.0 0.0 0.0 0.0 0.0
0.0 0.0 0.0 0.0 0.0 0.0 0.0 0.0
0.0 0.0 0.0 0.0 0.0 0.0 0.0 0.0
0.0 0.0 0.0 0.0 0.0 0.0 0.0 0.0
0.0 0.0 0.0 0.0 0.0 0.0 0.0 0.0
0.0 0.0 0.0 0.0 0.0 0.0 0.0 0.0
0.0 0.0 0.0 0.0 0.0 0.0 0.0 0.0
0.0 0.0 0.0 0.0 0.0 0.0 0.0 0.0
0.0 0.0 0.0 0.0 0.0 0.0 0.0 0.0
0.0 0.0 0.0 0.0 0.0 0.0 0.0 0.0
0.0 0.0 0.0 0.0 0.0 0.0 0.0 0.0
0.0 0.0 0.0 0.0 0.0 0.0 0.0 0.0
0.0 0.0 0.0 0.0 0.0 0.0 0.0 0.0
0.0 0.0 0.0 0.0 0.0 0.0 0.0 0.0
0.0 0.0 0.0 0.0 0.0 0.0 0.0 0.0
0.0 0.0 0.0 0.0 0.0 0.0 0.0 0.0
0.0 0.0 0.0 0.0 0.0 0.0 0.0 0.0
0.0 0.0 0.0 0.0 0.0 0.0 0.0 0.0
0.0 0.0 0.0 0.0 0.0 0.0 0.0 0.0
0.0 0.0 0.0 0.0 0.0 0.0 0.0 0.0
0.0 0.0 0.0 0.0 0.0 0.0 0.0 0.0
0.0 0.0 0.0 0.0 0.0 0.0 0.0 0.0
0.0 0.0 0.0 0.0 0.0 0.0 0.0 0.0
0.0 0.0 0.0 0.0 0.0 0.0 0.0 0.0
0.0 0.0 0.0 0.0 0.0 0.0 0.0 0.0
0.0 0.0 0.0 0.0 0.0 0.0 0.0 0.0
0.0 0.0 0.0 0.0 0.0 0.0 0.0 0.0
0.0 0.0 0.0 0.0 0.0 0.0 0.0 0.0
0.0 0.0 0.0 0.0 0.0 0.0 0.0 0.0
0.0 0.0 0.0 0.0 0.0 0.0 0.0 0.0
0.0 0.0 0.0 0.0 0.0 0.0 0.0 0.0
0.0 0.0 0.0 0.0 0.0 0.0 0.0 0.0

tfl.pseudo_qconst29 i1 [1, 22, 1, 64] scale=0.03408393 zero_point=-128
00000000: 8080 8080 8080 8080 8080 8080 8080 8080
00000010: 8080 8080 8080 8080 8080 8080 8080 8080
00000020: 8080 8080 8080 8080 8080 8080 8080 8080
00000030: 8080 8080 8080 8080 8080 8080 8080 8080
00000040: 8080 8080 8080 8080 8080 8080 8080 8080
00000050: 8080 8080 8080 8080 8080 8080 8080 8080
00000060: 8080 8080 8080 8080 8080 8080 8080 8080
00000070: 8080 8080 8080 8080 8080 8080 8080 8080
00000080: 8080 8080 8080 8080 8080 8080 8080 8080
00000090: 8080 8080 8080 8080 8080 8080 8080 8080
000000a0: 8080 8080 8080 8080 8080 8080 8080 8080
000000b0: 8080 8080 8080 8080 8080 8080 8080 8080
000000c0: 8080 8080 8080 8080 8080 8080 8080 8080
000000d0: 8080 8080 8080 8080 8080 8080 8080 8080
000000e0: 8080 8080 8080 8080 8080 8080 8080 8080
000000f0: 8080 8080 8080 8080 8080 8080 8080 8080
0.0 0.0 0.0 0.0 0.0 0.0 0.0 0.0
0.0 0.0 0.0 0.0 0.0 0.0 0.0 0.0
0.0 0.0 0.0 0.0 0.0 0.0 0.0 0.0
0.0 0.0 0.0 0.0 0.0 0.0 0.0 0.0
0.0 0.0 0.0 0.0 0.0 0.0 0.0 0.0
0.0 0.0 0.0 0.0 0.0 0.0 0.0 0.0
0.0 0.0 0.0 0.0 0.0 0.0 0.0 0.0
0.0 0.0 0.0 0.0 0.0 0.0 0.0 0.0
0.0 0.0 0.0 0.0 0.0 0.0 0.0 0.0
0.0 0.0 0.0 0.0 0.0 0.0 0.0 0.0
0.0 0.0 0.0 0.0 0.0 0.0 0.0 0.0
0.0 0.0 0.0 0.0 0.0 0.0 0.0 0.0
0.0 0.0 0.0 0.0 0.0 0.0 0.0 0.0
0.0 0.0 0.0 0.0 0.0 0.0 0.0 0.0
0.0 0.0 0.0 0.0 0.0 0.0 0.0 0.0
0.0 0.0 0.0 0.0 0.0 0.0 0.0 0.0
0.0 0.0 0.0 0.0 0.0 0.0 0.0 0.0
0.0 0.0 0.0 0.0 0.0 0.0 0.0 0.0
0.0 0.0 0.0 0.0 0.0 0.0 0.0 0.0
0.0 0.0 0.0 0.0 0.0 0.0 0.0 0.0
0.0 0.0 0.0 0.0 0.0 0.0 0.0 0.0
0.0 0.0 0.0 0.0 0.0 0.0 0.0 0.0
0.0 0.0 0.0 0.0 0.0 0.0 0.0 0.0
0.0 0.0 0.0 0.0 0.0 0.0 0.0 0.0
0.0 0.0 0.0 0.0 0.0 0.0 0.0 0.0
0.0 0.0 0.0 0.0 0.0 0.0 0.0 0.0
0.0 0.0 0.0 0.0 0.0 0.0 0.0 0.0
0.0 0.0 0.0 0.0 0.0 0.0 0.0 0.0
0.0 0.0 0.0 0.0 0.0 0.0 0.0 0.0
0.0 0.0 0.0 0.0 0.0 0.0 0.0 0.0
0.0 0.0 0.0 0.0 0.0 0.0 0.0 0.0
0.0 0.0 0.0 0.0 0.0 0.0 0.0 0.0
